SOOM-AI/results/run_20251009-172843/last.pt (torch, 328784 bytes, 91 tensors)

input_proj.weight f4 [32, 1]
0	0x3f3e4671	0.74326235
1	0x3f4f62d9	0.81010205
2	0xbe9c2784	-0.30498898
3	0x3f68a83a	0.90881693
4	0xbea27ae5	-0.31734386
5	0x3e17256a	0.14760366
6	0xbeef618e	-0.46754116
7	0x3f1ae754	0.6050923
8	0x3f6473c5	0.8923915
9	0xbf41d50f	-0.75715727
10	0x3f67f60e	0.90609825
11	0x3df710c4	0.12063745
12	0x3f514f1f	0.81761354
13	0x3e539bc9	0.20664896
14	0x3ecabde9	0.39598015
15	0xbe32333c	-0.17402357
16	0x3f42e988	0.7613759
17	0x3e6c3426	0.23066768
18	0xbed3322d	-0.4124922
19	0x3e99d5ea	0.30046016
20	0xbf0172e6	-0.50565946
21	0xbe06f2a4	-0.13178498
22	0xbef655d3	-0.48112354
23	0x3f3c1ad5	0.7347844
24	0xbf5ed02a	-0.87036383
25	0xbece33a4	-0.40273774
26	0xbe86ebcd	-0.26351777
27	0xbf17289c	-0.5904634
28	0x3e1aae45	0.15105541
29	0xbf82faa3	-1.0232738
30	0x3f78f60c	0.9725044
31	0xbf66858f	-0.90047544

input_proj.bias f4 [32]
0	0x3f45a86f	0.77210134
1	0x3e1efa23	0.15525107
2	0xbe9f9e63	-0.31175527
3	0x3f1dd46f	0.6165227
4	0x3e1e7d6a	0.15477529
5	0x3f4d872b	0.80284375
6	0x3dd4ff7d	0.10400293
7	0xbe9e5c81	-0.3092995
8	0x3e87a88e	0.26495785
9	0xbe8c3b15	-0.27388826
10	0x3edaf04e	0.42761463
11	0x3f63f200	0.8904114
12	0x3f107e23	0.5644247
13	0xbedd67c8	-0.4324324
14	0x3f133828	0.5750756
15	0x3e46754a	0.1938068
16	0x3effbb2c	0.49947488
17	0xbf199d1f	-0.6000537
18	0xbf7d10cf	-0.9885377
19	0xbec87093	-0.39148387
20	0xbf433c89	-0.76264244
21	0x3f5083a8	0.8145089
22	0x3e90c111	0.28272298
23	0x3ed2ae6b	0.41148695
24	0x3ea38961	0.3194075
25	0xbcb21a28	-0.021740988
26	0x3f482fdb	0.7819802
27	0xbf3612cd	-0.7112244
28	0x3d91db91	0.07121957
29	0xbf30bcbf	-0.69038004
30	0x3e9c1533	0.30484924
31	0xbeb15322	-0.34633738

pos_encoder.pe f4 [1, 240, 32]
0	0x00000000	0.0
1	0x3f800000	1.0
2	0x00000000	0.0
3	0x3f800000	1.0
4	0x00000000	0.0
5	0x3f800000	1.0
6	0x00000000	0.0
7	0x3f800000	1.0
8	0x00000000	0.0
9	0x3f800000	1.0
10	0x00000000	0.0
11	0x3f800000	1.0
12	0x00000000	0.0
13	0x3f800000	1.0
14	0x00000000	0.0
15	0x3f800000	1.0
16	0x00000000	0.0
17	0x3f800000	1.0
18	0x00000000	0.0
19	0x3f800000	1.0
20	0x00000000	0.0
21	0x3f800000	1.0
22	0x00000000	0.0
23	0x3f800000	1.0
24	0x00000000	0.0
25	0x3f800000	1.0
26	0x00000000	0.0
27	0x3f800000	1.0
28	0x00000000	0.0
29	0x3f800000	1.0
30	0x00000000	0.0
31	0x3f800000	1.0
32	0x3f576aa4	0.84147096
33	0x3f0a5141	0.54030234
34	0x3f087dba	0.53316844
35	0x3f58940d	0.8460091
36	0x3e9f393e	0.3109836
37	0x3f734e6b	0.9504153
38	0x3e35233a	0.17689219
39	0x3f7bf683	0.9842302
40	0x3dcc7576	0.099833414
41	0x3f7eb898	0.9950042
42	0x3d6636ae	0.05620449
43	0x3f7f9868	0.9984193
44	0x3d01815b	0.031617504
45	0x3f7fdf3c	0.99950004
46	0x3c91ab42	0.017781857
47	0x3f7ff5a3	0.99984187
48	0x3c23d657	0.009999833
49	0x3f7ffcb9	0.99995
50	0x3bb8445a	0.0056233825
51	0x3f7ffef7	0.9999842
52	0x3b4f3e1c	0.0031622713
53	0x3f7fffac	0.999995
54	0x3ae91520	0.0017782785
55	0x3f7fffe6	0.99999845
56	0x3a83126d	0.0009999998
57	0x3f7ffff8	0.9999995
58	0x3a136a13	0.0005623411
59	0x3f7ffffd	0.9999998
60	0x39a5cb61	0.00031622782
61	0x3f7fffff	0.99999994
62	0x393a7753	0.00017782794
63	0x3f800000	1.0
64	0x3f68c7b7	0.9092974
65	0xbed51133	-0.41614684
66	0x3f66f20a	0.9021307
67	0x3edce8b2	0.43146282
68	0x3f17541b	0.5911271
69	0x3f4e7bec	0.8065784
70	0x3eb247f6	0.34820527
71	0x3f6ffaa6	0.93741834
72	0x3e4b6ff8	0.19866931
73	0x3f7ae5a5	0.9800666
74	0x3de5d986	0.1122313
75	0x3f7e61f3	0.9936821
76	0x3d8170c8	0.063203394
77	0x3f7f7cf9	0.9980007
78	0x3d11a55c	0.03555809
79	0x3f7fd68e	0.9993676
80	0x3ca3d43e	0.019998666
81	0x3f7ff2e5	0.9998
82	0x3c38439b	0.011246587
83	0x3f7ffbdb	0.99993676
84	0x3bcf3dd8	0.006324511
85	0x3f7ffeb1	0.99998003
86	0x3b691508	0.0035565514
87	0x3f7fff96	0.9999937
88	0x3b031268	0.0019999985
89	0x3f7fffdf	0.99999803
90	0x3a936a12	0.0011246821
91	0x3f7ffff5	0.99999934
92	0x3a25cb60	0.0006324556
93	0x3f7ffffd	0.9999998
94	0x39ba7753	0.00035565588
95	0x3f7fffff	0.99999994
96	0x3e1081c3	0.14112
97	0xbf7d7026	-0.9899925
98	0x3f7e45d7	0.9932532
99	0xbded7fab	-0.11596616
100	0x3f5009c2	0.8126489
101	0x3f152f58	0.58275366
102	0x3f022f6c	0.5085361
103	0x3f5c6d29	0.86104065
104	0x3e974e6c	0.2955202
105	0x3f7490ef	0.9553365
106	0x3e2beed7	0.16790329
107	0x3f7c5d9e	0.9858035
108	0x3dc1ffc0	0.094726086
109	0x3f7ed94f	0.99550337
110	0x3d5a694e	0.053323083
111	0x3f7fa2c3	0.9985773
112	0x3cf5b91f	0.0299955
113	0x3f7fe283	0.99955004
114	0x3c8a31c6	0.016869437
115	0x3f7ff6ad	0.9998577
116	0x3c1b6e0d	0.009486687
117	0x3f7ffd0d	0.999955
118	0x3baecfa8	0.005334813
119	0x3f7fff11	0.99998575
120	0x3b449b92	0.0029999954
121	0x3f7fffb5	0.9999955
122	0x3add1f17	0.0016870227
123	0x3f7fffe8	0.99999857
124	0x3a78b110	0.00094868336
125	0x3f7ffff9	0.9999996
126	0x3a0bd97e	0.0005334838
127	0x3f7ffffe	0.9999999
128	0xbf41bdcf	-0.7568025
129	0xbf275530	-0.6536436
130	0x3f4749ec	0.7784717
131	0xbf20af9e	-0.6276797
132	0x3f741dde	0.95358074
133	0x3e9a2eb1	0.30113748
134	0x3f271fbc	0.652828
135	0x3f41ebed	0.7575062
136	0x3ec761d7	0.38941833
137	0x3f6bcaa7	0.921061
138	0x3e6465c5	0.22304447
139	0x3f798d09	0.9748083
140	0x3e012e88	0.12615407
141	0x3f7df469	0.99201065
142	0x3d918dc8	0.07107121
143	0x3f7f5a46	0.9974712
144	0x3d23cbdb	0.039989334
145	0x3f7fcb94	0.9992001
146	0x3cb840a0	0.022491753
147	0x3f7fef6c	0.99974704
148	0x3c4f3cc9	0.01264877
149	0x3f7ffac2	0.99992
150	0x3be914a7	0.0071130577
151	0x3f7ffe58	0.9999747
152	0x3b831257	0.003999989
153	0x3f7fff7a	0.999992
154	0x3b136a0c	0.0022493629
155	0x3f7fffd6	0.9999975
156	0x3aa5cb5e	0.0012649109
157	0x3f7ffff3	0.9999992
158	0x3a3a7752	0.0007113117
159	0x3f7ffffc	0.99999976
160	0xbf757c10	-0.9589243
161	0x3e913c2c	0.2836622
162	0x3ea5dad8	0.32393527
163	0xbf723240	-0.94607925
164	0x3f7ffc7f	0.99994653
165	0xbc2972e9	-0.010342338
166	0x3f46caab	0.77652997
167	0x3f214cf1	0.6300803
168	0x3ef57743	0.47942552
169	0x3f60a940	0.87758255
170	0x3e8e11ed	0.2774805
171	0x3f75f27c	0.96073127
172	0x3e213c1d	0.15745588
173	0x3f7cce81	0.987526
174	0x3db5db21	0.08879686
175	0x3f7efd1e	0.99604976
176	0x3d4cb6f4	0.049979165
177	0x3f7fae19	0.99875027
178	0x3ce64dfb	0.028113356
179	0x3f7fe619	0.99960476
180	0x3c81857e	0.015810724
181	0x3f7ff7cf	0.999875
182	0x3c11acbb	0.00889128
183	0x3f7ffd69	0.9999605
184	0x3ba3d6dd	0.004999979
185	0x3f7fff2e	0.9999875
186	0x3b384489	0.0028117022
187	0x3f7fffbe	0.99999607
188	0x3acf3e33	0.0015811383
189	0x3f7fffeb	0.99999875
190	0x3a691526	0.0008891396
191	0x3f7ffff9	0.9999996
192	0xbe8f0f8c	-0.2794155
193	0x3f75cdb8	0.96017027
194	0xbe6be576	-0.23036751
195	0xbf791d53	-0.9731037
196	0x3f72784e	0.9471482
197	0xbea43f6d	-0.3207964
198	0x3f603088	0.8757405
199	0x3ef72f35	0.48278204
200	0x3f108c68	0.5646424
201	0x3f534932	0.8253356
202	0x3ea97dfc	0.3310393
203	0x3f7190e2	0.943617
204	0x3e41206e	0.18860027
205	0x3f7b67e3	0.98205394
206	0x3dda19c2	0.10649444
207	0x3f7e8b51	0.9943133
208	0x3d759cd1	0.059964005
209	0x3f7f8a12	0.99820054
210	0x3d0a2cbe	0.033734076
211	0x3f7fdab3	0.99943084
212	0x3c9b6c43	0.018972522
213	0x3f7ff434	0.99982
214	0x3c2ecf05	0.0106694745
215	0x3f7ffc45	0.9999431
216	0x3bc49b58	0.0059999637
217	0x3f7ffed2	0.999982
218	0x3b5d1f03	0.0033740408
219	0x3f7fffa1	0.99999434
220	0x3af8b108	0.0018973658
221	0x3f7fffe2	0.9999982
222	0x3a8bd97c	0.0010669674
223	0x3f7ffff7	0.99999946
224	0x3f283046	0.6569866
225	0x3f40ffbd	0.75390226
226	0xbf36b670	-0.7137213
227	0xbf334f5e	-0.7004298
228	0x3f4ce86e	0.8004216
229	0xbf1974bc	-0.5994375
230	0x3f728444	0.9473307
231	0x3ea3f8ba	0.320257
232	0x3f24eb72	0.6442176
233	0x3f43ccb3	0.7648422
234	0x3ec460de	0.38355154
235	0x3f6c6bc6	0.9235195
236	0x3e60d350	0.2195561
237	0x3f79c0ea	0.9755999
238	0x3dfe46ba	0.12415834
239	0x3f7e04e9	0.9922624
240	0x3d8f3e32	0.06994285
241	0x3f7f5f81	0.997551
242	0x3d21315e	0.03935372
243	0x3f7fcd3b	0.9992253
244	0x3cb552a2	0.022134129
245	0x3f7feff2	0.999755
246	0x3c4bf12a	0.012447635
247	0x3f7ffaec	0.9999225
248	0x3be55fc5	0.006999942
249	0x3f7ffe65	0.9999755
250	0x3b80fcbc	0.0039363783
251	0x3f7fff7e	0.99999225
252	0x3b1111ed	0.0022135929
253	0x3f7fffd7	0.99999756
254	0x3aa32866	0.0012447953
255	0x3f7ffff3	0.9999992

transformer_encoder.layers.0.self_attn.in_proj_weight f4 [96, 32]
0	0xbddfea45	-0.10933355
1	0xbe3c1dd8	-0.1837076
2	0x3b51d1f4	0.003201601
3	0xbe0184cb	-0.12648313
4	0x3e2ee3d2	0.17079094
5	0xbe54dd23	-0.20787482
6	0x3da5abab	0.08089384
7	0x3e5ad2dd	0.213695
8	0x3ddeb361	0.108740576
9	0x3d8bf14c	0.06833133
10	0xbe54d90f	-0.20785926
11	0x3e55ffbd	0.20898338
12	0xbd157c89	-0.03649572
13	0xbe4ce33a	-0.20008555
14	0x3e5a7ad9	0.21335925
15	0xbdb6d71b	-0.08927747
16	0xbc77747f	-0.015103458
17	0x3e49bdde	0.19701335
18	0xbe19dafa	-0.15024939
19	0xbe1cf4ec	-0.15327805
20	0x3d0f63cf	0.035007294
21	0xbceb9fe7	-0.02876277
22	0x3d4d462e	0.050115757
23	0xbe39aab2	-0.18131521
24	0x3bdb5a69	0.0066941273
25	0xbdc4c2ac	-0.09607443
26	0xbdd97a42	-0.10619022
27	0xbe4ae636	-0.19814381
28	0x3deb5079	0.11489958
29	0x3d2aec0a	0.04172901
30	0xbe3afa38	-0.18259513
31	0x3e301cca	0.17198482
32	0x3d8974c4	0.067117244
33	0x3d4a12c8	0.049334317
34	0xbe00a4c5	-0.12562855
35	0x3d0cc615	0.034368593
36	0x3e54bbdf	0.20774792
37	0x3e192dae	0.14958832
38	0xbe25ab64	-0.16178662
39	0x3e486461	0.19569542
40	0x3cb41d48	0.021986619
41	0x3dd38821	0.10328699
42	0x3e2cc8d1	0.1687348
43	0x3e3e4f55	0.1858495
44	0xbe2780d5	-0.1635774
45	0x3e3d8597	0.18507992
46	0xbe12fc3e	-0.14354035
47	0x3cca762f	0.024714557
48	0xbe1896ed	-0.14901324
49	0xbd416a9b	-0.047220808
50	0xbc61c1c4	-0.0137791075
51	0xbcb3b1b5	-0.021935323
52	0xbd1a6846	-0.0376971
53	0x3ca21303	0.019784456
54	0x3e5cfa16	0.21579775
55	0x3e037e21	0.12841083
56	0x3dfd1018	0.12356585
57	0x3db6ede7	0.08932095
58	0x3e2e42e5	0.17017706
59	0xbbecc15e	-0.0072251996
60	0x3c9e79b2	0.019345138
61	0x3d41eb03	0.047343265
62	0xbe3edbbc	-0.1863851
63	0xbe2fd7ac	-0.17172116
64	0x3cd28fbb	0.025703302
65	0xbdb8a84f	-0.09016477
66	0xbb131218	-0.0022441205
67	0xbd51140b	-0.051044505
68	0x3d046872	0.03232617
69	0x3e109c8e	0.14122221
70	0xbda76ee4	-0.081754476
71	0x3e33e3d4	0.17567378
72	0x3e2edc57	0.1707624
73	0xbe2a62fb	-0.1663932
74	0xbe2dbd9e	-0.16966864
75	0xbe358232	-0.17725447
76	0xbdf5226e	-0.119694576
77	0xbda21373	-0.07913866
78	0xbc9468d3	-0.01811639
79	0xbd50725c	-0.05089031
80	0xbde321e7	-0.11090451
81	0xbd8a5e23	-0.067562364
82	0xbd9df1a8	-0.07712108
83	0x3e580c47	0.21098433
84	0xbda1c349	-0.07898576
85	0xbe202394	-0.15638572
86	0x3db566cb	0.08857497
87	0xbc635911	-0.013876216
88	0x3e285218	0.16437566
89	0x3e0922bc	0.13392156
90	0x3e4a45f7	0.19753252
91	0xbe23c478	-0.15992916
92	0x3e0cd33c	0.13752455
93	0x3e38afff	0.18035887
94	0xbdddd5ba	-0.10831781
95	0x3e4a6678	0.19765651
96	0x3e2d83c1	0.16944791
97	0x3c84935d	0.01618355
98	0x3dc8d50e	0.09806262
99	0xbd8c90d9	-0.06863565
100	0xbe393fb5	-0.18090709
101	0x3d7730bd	0.060349215
102	0x3da3dc8b	0.080010496
103	0xbe19f230	-0.15033793
104	0x3de96c45	0.11397604
105	0xbe48864c	-0.1958248
106	0x3e4860f0	0.19568229
107	0x3e5e852f	0.21730493
108	0x3d8f9409	0.07010657
109	0xbe133235	-0.14374621
110	0x3de84338	0.11340946
111	0x3d533d6c	0.05157225
112	0x3d872b23	0.066000246
113	0x3d882dbb	0.066493474
114	0x3e1f4835	0.15554889
115	0xbdac6576	-0.0841779
116	0xbd6b26b0	-0.057409942
117	0x3d88b48b	0.06675061
118	0x3cfbb4b8	0.030725822
119	0x3e3aa85c	0.18228287
120	0xbdda02fc	-0.106451005
121	0xb977191a	-0.00023565107
122	0x3d44a3fe	0.048007958
123	0xbd4c7dc2	-0.04992462
124	0x3e1eaa9e	0.15494773
125	0x3cfea3e2	0.031084005
126	0xbe44f8d6	-0.19235548
127	0xbc8207d1	-0.015872868
128	0xbdc1b82d	-0.09458957
129	0x3cfa28e4	0.030537076
130	0xbcfda35a	-0.030961681
131	0xbe57ea14	-0.21085387
132	0xbcf2836a	-0.029603679
133	0xbca0e3f7	-0.019639952
134	0xbd59fc42	-0.053219087
135	0x3e47673b	0.19472973
136	0xbd304eac	-0.043043777
137	0x3e097a20	0.13425493
138	0x3d72eba5	0.05930676
139	0xbe370d31	-0.17876126
140	0x3d6476ca	0.05577735
141	0x3e2f27d1	0.17105033
142	0xbe0bd6b9	-0.13656129
143	0xbdff3c19	-0.124626346
144	0x3e5c8063	0.2153335
145	0x3e323497	0.17402874
146	0xbe00e1e9	-0.12586178
147	0x3e0ac567	0.13551866
148	0xbd04a952	-0.03238804
149	0xbe56b56b	-0.20967643
150	0x3c9f3e13	0.019438779
151	0x3d96e3df	0.07367682
152	0xbd7c19c1	-0.061548
153	0x3da1d704	0.07902339
154	0xbe39e95f	-0.1815543
155	0x3e1d6684	0.15371138
156	0x3e405ce2	0.18785432
157	0x3dfbfb59	0.123038
158	0x3d250522	0.0402881
159	0x3d9996a9	0.07499439
160	0xbe1f400d	-0.15551777
161	0xbd420413	-0.047367167
162	0xbcaee0cb	-0.021347424
163	0xbdf42ed4	-0.11922994
164	0xbe23aa9e	-0.15983054
165	0x3e171bba	0.1475667
166	0x3e202ac6	0.15641317
167	0xbe4db326	-0.20087871
168	0x3d93748c	0.07199964
169	0x3db215a3	0.08695533
170	0x3e548bae	0.20756409
171	0x3e02cfba	0.12774554
172	0x3e4f26a5	0.20229585
173	0xbd97fac4	-0.074208766
174	0x3e1e2890	0.15445161
175	0x3e34692b	0.17618243
176	0xbe4e962f	-0.20174478
177	0xbe347854	-0.17624027
178	0x3d28138e	0.041034274
179	0x3df7de9f	0.121030085
180	0xbde1e342	-0.11029674
181	0x3cd99d5c	0.026564293
182	0x3b1d73a3	0.0024025224
183	0x3d6b8375	0.057498414
184	0xbde8b7aa	-0.11363156
185	0x3dffaa91	0.12483705
186	0x3e163888	0.14670002
187	0xbe16f96f	-0.14743589
188	0x3b9ea05d	0.004840894
189	0x3b5c6f68	0.003363574
190	0x3d93ee95	0.0722324
191	0x3e514fe3	0.2044063
192	0x3d8e3fbb	0.06945749
193	0xbd22c78e	-0.03974109
194	0x3e44dab5	0.19224055
195	0xbd9d83b5	-0.07691137
196	0xbd785652	-0.060629196
197	0x3c95ce07	0.018286718
198	0xbe21e3d1	-0.15809561
199	0x3ca75e51	0.020430716
200	0xbe11b61a	-0.14229622
201	0x3c7b82e6	0.015351033
202	0x3cc926e2	0.024554674
203	0x3d0ab74b	0.033866208
204	0xbe338d68	-0.17534411
205	0xbe4fe33a	-0.20301524
206	0x3dd20036	0.102539465
207	0x3e4ab31f	0.19794892
208	0xbe40ac0d	-0.18815632
209	0x3d9a2237	0.07526057
210	0xbe27da4d	-0.16391869
211	0x3c8e6844	0.017383702
212	0x3e49c9b3	0.19705848
213	0x3e2c8c85	0.16850479
214	0xbe1db74c	-0.15401953
215	0x3e0d8f24	0.13824135
216	0x3df041fa	0.11731334
217	0x3b81d707	0.003962401
218	0x3e5b2d76	0.2140406
219	0xbda7810f	-0.08178913
220	0xbd3cb70c	-0.046073005
221	0xbdd7bb22	-0.105337396
222	0x3d11ef1b	0.03562842
223	0x3d7c304a	0.06156949
224	0x3c67eb83	0.014155271
225	0xbdf8fb3b	-0.121572934
226	0xbdc37d68	-0.09545404
227	0x3d8fe333	0.07025757
228	0xbe45fc72	-0.19334581
229	0xbd0e548d	-0.034748603
230	0xbabc23dd	-0.001435395
231	0xbdafdf1e	-0.08587478
232	0x3da71eba	0.081601575
233	0x3ca54ff7	0.020179732
234	0x3e1986f0	0.14992881
235	0xbcae45ed	-0.021273578
236	0xbe0d8b8d	-0.13822766
237	0x3e14d6a4	0.14535004
238	0x3d02cab2	0.031931587
239	0xbd5bce84	-0.053663746
240	0xbe13d560	-0.14436865
241	0x3d696fe8	0.056991488
242	0xbe54a0c5	-0.20764454
243	0x3d7172ea	0.05894748
244	0x3dda64f2	0.10663785
245	0xbe4399c8	-0.19101632
246	0xbe133380	-0.14375114
247	0xbe20b647	-0.15694533
248	0x3e38b1e5	0.18036611
249	0x3e3b3e5c	0.18285507
250	0x3c46b741	0.012128652
251	0x3e4f1f28	0.20226729
252	0xbd98d3f2	-0.074623
253	0xbe5812d3	-0.21100931
254	0x3d970b1a	0.07375164
255	0x3d9ad5a4	0.0756028

transformer_encoder.layers.0.self_attn.in_proj_bias f4 [96]
0	0x398306b2	0.00024991255
1	0x3b2c08de	0.0026250402
2	0xbab36e59	-0.0013689502
3	0x3bfaf2c3	0.007658334
4	0x3b71c428	0.00368906
5	0x3b31d59b	0.0027135375
6	0x3b8d7231	0.004316591
7	0xbaab1c72	-0.0013054742
8	0xbb536cd4	-0.0032260912
9	0xbc4fdd68	-0.012687065
10	0x3bad7f51	0.0052947183
11	0x3ae1ac73	0.0017217532
12	0xbbfaf016	-0.007658015
13	0xbb5737ab	-0.0032839577
14	0x36923760	4.3575856e-06
15	0xbc39967b	-0.011327381
16	0xbc73601d	-0.014854458
17	0xbacf6598	-0.0015823124
18	0xbbf6a75b	-0.0075272745
19	0xbb39819b	-0.002830601
20	0x3ba25609	0.004954104
21	0x3c1f679e	0.009729294
22	0x3bc692bc	0.0060599726
23	0xbae762c1	-0.0017653332
24	0x3b0e80ad	0.0021744177
25	0xbbe90121	-0.0071107303
26	0x3c115e1b	0.008872534
27	0xbc151c8a	-0.0091010425
28	0x3b944f9d	0.004526092
29	0x3c09401c	0.008377101
30	0xbc3d46fb	-0.011552568
31	0x3c3027e8	0.010751702
32	0x3878ff9f	5.9365873e-05
33	0x37a7e684	2.0015294e-05
34	0x366ff30e	3.5755252e-06
35	0xb87b061c	-5.9848753e-05
36	0xb70aa0e2	-8.262899e-06
37	0xb782cbbf	-1.5592084e-05
38	0xb7cde334	-2.4543704e-05
39	0x378fdc79	1.7149594e-05
40	0xb726da2c	-9.945168e-06
41	0x3747b21e	1.1902795e-05
42	0xb6b5d6ff	-5.419249e-06
43	0x3741e53d	1.155707e-05
44	0x37d58dce	2.5457612e-05
45	0xb70e7ec2	-8.493373e-06
46	0xb6b3bd03	-5.3566196e-06
47	0x3606de94	2.0097114e-06
48	0xb84d49fd	-4.8944716e-05
49	0xb71df63d	-9.415261e-06
50	0x380cbe7f	3.3556014e-05
51	0x3741a7c3	1.15427565e-05
52	0x3722fb6c	9.714491e-06
53	0x383cbd64	4.4999077e-05
54	0xb701d26a	-7.73799e-06
55	0x362de1a0	2.591034e-06
56	0xb616c11e	-2.246415e-06
57	0xb6a95721	-5.0467356e-06
58	0xb70e819a	-8.494035e-06
59	0x3893c0c8	7.0454145e-05
60	0x3716541b	8.960279e-06
61	0xb7be569e	-2.26901e-05
62	0x373d8d57	1.1298186e-05
63	0xb894fdcd	-7.104464e-05
64	0x3c06e6ae	0.008233709
65	0xba984f32	-0.0011620282
66	0xbab35f82	-0.001368508
67	0x3bcc241f	0.006229892
68	0x3a427d8c	0.00074192206
69	0x3c4329f7	0.011911861
70	0x3b82ca06	0.003991368
71	0xba834b65	-0.0010016976
72	0xbb4c8653	-0.0031207993
73	0xbae46e17	-0.0017427829
74	0x3be1a18f	0.0068857144
75	0x3a06dede	0.0005144904
76	0x3bc5cd07	0.006036404
77	0x3ae16aa2	0.0017197917
78	0x3a1b7a91	0.00059310446
79	0x3b8ec55d	0.0043570236
80	0x3b0ec700	0.0021786094
81	0x3c8e94b2	0.017404888
82	0x3b99f33b	0.004698185
83	0x3be4a9e4	0.0069782604
84	0xbbb9c416	-0.005669127
85	0xbc23c0c9	-0.009994694
86	0xbb9d4298	-0.0047991984
87	0xbb6cbb31	-0.0036122317
88	0xbbfb8c44	-0.007676633
89	0xbb2384f1	-0.0024951065
90	0xbb0aafdd	-0.0021161952
91	0xbc206aee	-0.009791119
92	0x3c0973d0	0.008389428
93	0x3c2e7eb4	0.010650326
94	0x3be38aee	0.006944052
95	0x39518c2e	0.00019984014

transformer_encoder.layers.0.self_attn.out_proj.weight f4 [32, 32]
0	0x3d685d80	0.056729794
1	0xbd08c9a9	-0.033395443
2	0x3e18a8e7	0.14908181
3	0xbdd1d629	-0.10245926
4	0xbddc6a78	-0.10762495
5	0xbdf40197	-0.11914366
6	0x3e1f77a3	0.15572982
7	0x3d6cdaab	0.057825726
8	0x3e316239	0.17322625
9	0xbe15a7dc	-0.14614815
10	0xbe379e3e	-0.17931458
11	0xbe103d2a	-0.14085832
12	0xbdf38f8f	-0.11892616
13	0x3d89694f	0.06709539
14	0x3d8660ae	0.06561409
15	0x3e12fbd3	0.14353876
16	0xbdad7fbf	-0.08471631
17	0xbdfd01ee	-0.12353884
18	0x3dc86040	0.09783983
19	0xbd97c31c	-0.07410261
20	0x3ddf74c3	0.109109424
21	0xbd1990f3	-0.03749175
22	0x3ddbb38a	0.10727604
23	0xbe0ec721	-0.13943149
24	0xbdae5370	-0.08512008
25	0x3d5390c8	0.051651746
26	0x3d234702	0.03986264
27	0xbd27a70e	-0.0409308
28	0x3dd273ac	0.10275969
29	0x3de6a232	0.11261405
30	0xbe0167cd	-0.12637253
31	0xbdbb4656	-0.09144275
32	0x3e1b1722	0.15145543
33	0xbd8ea2c2	-0.06964637
34	0xbd94550e	-0.072427854
35	0xbe38b401	-0.18037416
36	0xbdb8e114	-0.09027305
37	0x3d4d04c4	0.050053373
38	0xbc5692fb	-0.013096566
39	0xbdeced3b	-0.115686856
40	0xbbcda5a2	-0.0062758485
41	0xbde0a2fa	-0.10968585
42	0xbe1019de	-0.14072368
43	0xbdb327e4	-0.08747843
44	0xbe1502d2	-0.14551857
45	0xbdcf4052	-0.1011969
46	0x3e292f89	0.1652204
47	0x3d342796	0.043983065
48	0x3d75e7cf	0.060035523
49	0xbe1d6516	-0.15370592
50	0xbdde7b61	-0.108633764
51	0xbd4c126d	-0.04982226
52	0x3c8357cb	0.016033074
53	0xbe28c0c0	-0.16479778
54	0xbd9ce1a4	-0.07660225
55	0xbdc1d12f	-0.09463727
56	0xbc2e6047	-0.0106430715
57	0xbd5ddc29	-0.05416504
58	0xbcbd48e2	-0.023106042
59	0xbe0365bc	-0.12831777
60	0xbde32f97	-0.110930614
61	0xbdb846ae	-0.08997856
62	0xbd91e5c3	-0.07123902
63	0xbe1a3893	-0.15060644
64	0x3e229163	0.15875773
65	0xbcc13647	-0.023585452
66	0x3e261d86	0.162222
67	0x3d87d589	0.066325255
68	0xbe2470f7	-0.16058718
69	0x3df2c4f6	0.118539736
70	0xbd73e966	-0.059548758
71	0xbd9e0db5	-0.07717458
72	0xbe09e486	-0.13466081
73	0xbe3de879	-0.18545713
74	0x3d2706dc	0.040778026
75	0xbd46edb2	-0.048566528
76	0x3d864e0a	0.065578535
77	0xbe1f0d6f	-0.15532468
78	0x3e1179db	0.1420664
79	0xbe0f617a	-0.14002028
80	0xbd347df4	-0.04406543
81	0x3cea135c	0.028573684
82	0x3db5d9c9	0.0887943
83	0x3e09defd	0.1346397
84	0x3e2e85b6	0.17043194
85	0xbe04a167	-0.12952195
86	0x3d248ac1	0.04017139
87	0xbdb2414c	-0.08703861
88	0xbc0bb977	-0.008528105
89	0xbe11a83f	-0.14224337
90	0x3e2fdaa8	0.17173254
91	0xbdf642be	-0.12024449
92	0x3dac1086	0.08401589
93	0x3d4f00dd	0.050537933
94	0x3d8c2db0	0.06844652
95	0xbdab7fee	-0.0837401
96	0x3e24acb4	0.16081506
97	0x3d1b8b02	0.037974365
98	0x3cae8e8f	0.021308212
99	0xbe1edf2f	-0.15514825
100	0x3d9903f5	0.07471458
101	0xbcd6bd7f	-0.026213406
102	0xbda316cc	-0.079633325
103	0x3e1a6bae	0.15080139
104	0x3d2175c4	0.03941895
105	0xbdc56208	-0.096378386
106	0xbdb5f008	-0.08883673
107	0xbc06d0b7	-0.008228472
108	0x3dcda46b	0.10041126
109	0xbd360c09	-0.04444507
110	0xbdcdceaa	-0.10049184
111	0xbd787f84	-0.060668483
112	0xbdf54184	-0.11975387
113	0x3d855357	0.065100364
114	0x3e044b3a	0.12919322
115	0xbe289260	-0.16462088
116	0x3d26a164	0.040681258
117	0x3db7f1e4	0.08981684
118	0x3cf9073a	0.030398954
119	0xbd813cb8	-0.06310409
120	0x3db983d2	0.09058346
121	0x3dbedf98	0.09319991
122	0x3d864a8f	0.0655719
123	0xbcffe402	-0.031236652
124	0xbd3cb836	-0.046074115
125	0x3ca1f2b8	0.019769058
126	0xbcfe874d	-0.031070376
127	0xbd58a164	-0.05288829
128	0x3ddf317a	0.10898109
129	0x3e1a5f51	0.15075423
130	0xbcb2c7e0	-0.021823823
131	0xbd2f4d7f	-0.042798515
132	0x3bad58ad	0.005290112
133	0xbc9073d1	-0.01763335
134	0x3d35840a	0.044315375
135	0x3d5b9ebc	0.053618178
136	0xbe261224	-0.16217858
137	0xbd776b78	-0.060405225
138	0x3e1b81c6	0.15186223
139	0x3d91d732	0.071211234
140	0x3bbf3bb8	0.0058359765
141	0xbdcea43e	-0.100899205
142	0xbde5d9e2	-0.112231985
143	0xbe20e6ce	-0.15713045
144	0xbd58eecb	-0.052962106
145	0x3d889621	0.0666926
146	0x3dd88e88	0.10574061
147	0x3db4eed1	0.08834613
148	0xbe241bea	-0.16026273
149	0xbde0c05d	-0.109741904
150	0xbce0dcb1	-0.027448984
151	0x3e30d91c	0.1727032
152	0x3cbb97bc	0.022899501
153	0xbd27e85c	-0.04099308
154	0x3d90a98a	0.07063587
155	0xbd8b5dbc	-0.06804988
156	0xbde34222	-0.11096598
157	0x3e040fe4	0.12896687
158	0xbdad7de2	-0.08471276
159	0xbd17497f	-0.036935326
160	0xbe3b6da8	-0.1830355
161	0x3de0fa02	0.10985185
162	0x3e020a7b	0.1269931
163	0x3d645601	0.055746082
164	0xbdeda2ca	-0.11603315
165	0xbe345211	-0.17609431
166	0xbe0ac7ad	-0.13552733
167	0x3e0aa2e0	0.13538694
168	0x3da0f6db	0.07859584
169	0x3e1f8fc5	0.15582187
170	0x3dccd38a	0.100012854
171	0x3d53c97d	0.051705826
172	0xbb1e5cb6	-0.0024164147
173	0xbe04c2bd	-0.12964912
174	0xbe2174fb	-0.15767281
175	0xbe227268	-0.15863955
176	0x3db31605	0.08744434
177	0xbdabb93d	-0.08384941
178	0xbd239cf2	-0.039944597
179	0xbdc50c67	-0.09621506
180	0xbd18bca7	-0.037289288
181	0xbe04aa4f	-0.12955593
182	0xbdda13d2	-0.10648312
183	0x3d86763e	0.06565522
184	0xbd71206b	-0.058868807
185	0x3de99aa1	0.11406446
186	0xbd82f880	-0.06395054
187	0xbe0c1fda	-0.13684025
188	0xbcc8678b	-0.024463436
189	0xbdadc820	-0.084854364
190	0xbd800f13	-0.06252875
191	0xbe33d948	-0.17563355
192	0x3dc87427	0.09787779
193	0xbdfd2e0c	-0.12362298
194	0x3db57ab5	0.08861295
195	0x3da2fbe6	0.07958202
196	0x3e01f404	0.12690741
197	0xbe054dfc	-0.1301803
198	0x3e033006	0.12811288
199	0xbda845b6	-0.08216421
200	0x3d81215d	0.06305192
201	0x3e2a229d	0.16614766
202	0xbcbb2512	-0.022844825
203	0x389b849e	7.415678e-05
204	0xbd17930e	-0.037005477
205	0xbe180578	-0.14845836
206	0x3daba386	0.08380799
207	0xbe31ebbd	-0.17375083
208	0x3dd72411	0.10504926
209	0x3e07fe7a	0.13280669
210	0x3e3a161e	0.181725
211	0xbd297eb0	-0.041380584
212	0xbe15bc6c	-0.14622658
213	0x3d20636c	0.039157316
214	0x3dad8df8	0.08474344
215	0xbe3341d2	-0.17505577
216	0xbd2751a0	-0.040849328
217	0xbdda34ef	-0.106546275
218	0xbc8347df	-0.016025482
219	0xbdb7ddcb	-0.089778505
220	0xbd92aff6	-0.07162468
221	0xbd65f6df	-0.056143638
222	0xbe2b5e67	-0.1673523
223	0x3e1424d5	0.14467175
224	0x3e1c8d88	0.15288365
225	0xbcbb9875	-0.022899846
226	0xbc7ceffc	-0.015438076
227	0xbd87d379	-0.06632132
228	0xbe2925b9	-0.16518296
229	0xbe3213fd	-0.17390437
230	0x3d74e0f3	0.05978484
231	0xbdd39be6	-0.1033247
232	0xbdd69ff7	-0.104797296
233	0xbc95b7be	-0.018276092
234	0xbd7f6da0	-0.062360406
235	0xbd7c8719	-0.061652277
236	0x3b6c1cf2	0.0036027995
237	0xbd2f4600	-0.042791367
238	0xbd610b1c	-0.054942235
239	0xbdb8bcba	-0.09020372
240	0xbe173556	-0.1476644
241	0x3e12feb3	0.14354973
242	0xbdb0b453	-0.08628144
243	0x3d369b03	0.044581424
244	0xbd64bd2c	-0.05584447
245	0x3cace7ce	0.021106627
246	0x3e312f83	0.1730328
247	0x3d9b30aa	0.07577641
248	0xbe163d8b	-0.14671914
249	0x3d864fd7	0.06558197
250	0x3e311e25	0.17296655
251	0x3d53bc8a	0.051693477
252	0x3de7dfe6	0.11322002
253	0x3e27ace0	0.1637454
254	0xbcb960ba	-0.02262913
255	0x3d2f7721	0.04283822

transformer_encoder.layers.0.self_attn.out_proj.bias f4 [32]
0	0x3b2c6e0e	0.0026310715
1	0xbc2db186	-0.010601407
2	0x3c324db0	0.01088278
3	0xb9c639a7	-0.00037808457
4	0xbb1a693a	-0.0023561255
5	0xbbeeca44	-0.0072872955
6	0xba2c603c	-0.00065756193
7	0x3bac8039	0.005264309
8	0x3a2c0514	0.0006562036
9	0x3a831edc	0.0010003704
10	0x3bf6dbd8	0.0075335316
11	0x39b088dd	0.00033671307
12	0xbbdf7b96	-0.0068201525
13	0x3c355857	0.011068425
14	0xbb856e45	-0.004071983
15	0x3c3d35e7	0.011548496
16	0xbbf8a278	-0.007587727
17	0x3c0ed5fc	0.00871801
18	0xba311e57	-0.0006756535
19	0xbb291930	-0.0025802366
20	0x3bdc4bb2	0.006722891
21	0xbb83bc4e	-0.0040202504
22	0xbb9bd8a2	-0.0047560493
23	0xbb3d1963	-0.0028854243
24	0x3bad17d6	0.0052823825
25	0xbb805f76	-0.00391763
26	0x3abf3466	0.001458776
27	0xbaf1bfd7	-0.0018444014
28	0x3c41acda	0.011820996
29	0xbb834dfa	-0.0040070983
30	0xbb81f305	-0.0039657378
31	0xba2f56f1	-0.00066886755

transformer_encoder.layers.0.linear1.weight f4 [64, 32]
0	0x3dfb1bb2	0.12261142
1	0x3deeecc0	0.1166625
2	0xbc2ff54f	-0.0107396385
3	0x3e22c98e	0.158972
4	0xbd917154	-0.07101694
5	0xbb32ce82	-0.0027283733
6	0xbd2cc821	-0.042183045
7	0xbdf19b4c	-0.11797199
8	0xbdb74ab4	-0.08949795
9	0x3d4fe4ad	0.05075519
10	0xbca6eb25	-0.020375798
11	0xbdff842f	-0.12476384
12	0xbcf9a4a9	-0.030474024
13	0x3d3114ce	0.04323273
14	0xbe154160	-0.1457572
15	0x3de5803a	0.11206098
16	0xbe224e2e	-0.15850136
17	0x3be487b5	0.0069741854
18	0xbe09c76d	-0.13454981
19	0xbe1e9e8c	-0.15490168
20	0xbc428116	-0.011871597
21	0x3e1acae6	0.15116462
22	0x3e216fd4	0.15765315
23	0x3d5c78ee	0.053826265
24	0x3e04c373	0.12965183
25	0xbdda566a	-0.106610134
26	0x3de6c266	0.11267547
27	0x3dc8766e	0.09788214
28	0xbe2462b8	-0.16053283
29	0xbe00919c	-0.12555546
30	0x3d8b0e74	0.06789866
31	0x3c0d51c3	0.008625451
32	0xbdfaf490	-0.12253678
33	0xbe0e7087	-0.13910113
34	0x3e021839	0.12704553
35	0x3c979479	0.018503414
36	0xbb125ef9	-0.002233444
37	0xbe23faf2	-0.16013697
38	0x3e243d64	0.16039044
39	0xbdf02350	-0.11725485
40	0x3d9c8c62	0.076439634
41	0xbca6c1b0	-0.02035603
42	0x3c68a778	0.014200084
43	0x3dbc5a08	0.091968596
44	0xbd45938d	-0.04823642
45	0xbd56c4aa	-0.052433647
46	0x3e173c4b	0.14769094
47	0xbe0cb547	-0.13741027
48	0x3da2d327	0.0795043
49	0xbd378896	-0.044807993
50	0xbd720865	-0.059090037
51	0x3df56b45	0.11983351
52	0x3cf12f57	0.029441519
53	0xbe2921dc	-0.16516823
54	0x3e224806	0.15847787
55	0xbdb235f0	-0.08701694
56	0x3e1c77aa	0.15280023
57	0xbd605f79	-0.05477855
58	0x3e1d89d5	0.1538461
59	0x3d5a7539	0.05333445
60	0xbc12032e	-0.008911891
61	0x3dab159b	0.0835373
62	0xbc010a3a	-0.007875973
63	0xbdc8c670	-0.09803474
64	0x3dd09ed9	0.10186548
65	0x3de4782a	0.11155732
66	0xbcb528d9	-0.022114204
67	0x3e2e335a	0.17011777
68	0x3c64ec61	0.013972373
69	0xbde00dc9	-0.10940129
70	0xbdd107a5	-0.10206536
71	0x3debdbf1	0.1151656
72	0xbd8a9893	-0.067673825
73	0x3de33e15	0.110958256
74	0xbe34d13b	-0.1765794
75	0x3bd80f75	0.0065936395
76	0xbdf6abce	-0.12044488
77	0x3d75945b	0.059955936
78	0x3e10bb9a	0.14134064
79	0x3d8ab458	0.06772679
80	0xbd6c677c	-0.057715878
81	0xbe2dbf33	-0.16967468
82	0xbdb399b3	-0.0876955
83	0xbddaed3b	-0.10689779
84	0x3e28fd93	0.16502981
85	0xbdbcbe14	-0.09215942
86	0x3d8ed774	0.06974688
87	0x3e14671f	0.14492463
88	0x3d8eb06e	0.06967245
89	0xbe1aeeb6	-0.15130123
90	0xbc64d618	-0.01396706
91	0xbd507376	-0.050891362
92	0x3ddf2e7c	0.10897538
93	0xbc96e29d	-0.018418605
94	0xbc10c5fc	-0.008836266
95	0x3e2e6e98	0.17034376
96	0x3d1dc6d8	0.03851971
97	0x3da15bd9	0.07878847
98	0xbd4bb734	-0.049735263
99	0x3de39668	0.11112672
100	0x3d03022e	0.0319845
101	0xbd0f5dbb	-0.035001498
102	0x3ce1d9f4	0.027569748
103	0xbe05b45a	-0.1305708
104	0x3b6b1c0d	0.0035874874
105	0x3da2e706	0.079542205
106	0xbe268970	-0.16263366
107	0xbdd2ecb3	-0.10299053
108	0x3dd45491	0.10367692
109	0x3c0dbd65	0.008651112
110	0xbc1415c1	-0.00903839
111	0x3ca87be7	0.020566894
112	0xbdaacf05	-0.08340267
113	0x3e1e7428	0.15473998
114	0xbc252bb7	-0.010081223
115	0xbd66cda1	-0.056348447
116	0x3dcd1fe0	0.10015845
117	0xbe1e1f68	-0.15441668
118	0xbd2c6efd	-0.042098034
119	0x3c2296de	0.009923665
120	0xbd877ad0	-0.066152215
121	0x3db3fa92	0.08788027
122	0xbe13247e	-0.1436939
123	0xbd75553f	-0.05989575
124	0xbd882eeb	-0.06649574
125	0x3e1d482f	0.15359567
126	0x3d86def0	0.06585491
127	0xbe0680c8	-0.13135064
128	0x3d856422	0.065132394
129	0x3b9053dc	0.004404528
130	0x3e29c7e8	0.16580164
131	0x3dc333b7	0.09531348
132	0xbdce6809	-0.10078437
133	0x3e250c0f	0.16117881
134	0xbcf7829f	-0.030213652
135	0xbd1d51d6	-0.038408123
136	0x3d44f143	0.048081648
137	0x3e358d57	0.17729698
138	0x3d303717	0.043021288
139	0xbe39d0e1	-0.18146087
140	0xbd5b7f84	-0.053588405
141	0x3e299cf0	0.16563773
142	0xbd64a475	-0.0558209
143	0xbdab8930	-0.08375776
144	0xbe115bc6	-0.14195165
145	0xbdc2cb18	-0.09511393
146	0xbdc2f91b	-0.09520169
147	0x3d3caee3	0.046065222
148	0x3d915245	0.0709577
149	0x3e2b3549	0.16719545
150	0x3ded75d9	0.11594743
151	0x3a87e0f9	0.001036673
152	0x3dbaeae6	0.091268346
153	0x3dcc3615	0.09971253
154	0xbe21113a	-0.15729228
155	0x3db520ea	0.088441685
156	0xbdf47b3e	-0.11937569
157	0x3e13b6e3	0.14425234
158	0xbd9f6282	-0.07782461
159	0x3cdf7f25	0.027282307
160	0xbbb8525d	-0.005625053
161	0x3d9b10ce	0.075715646
162	0x3d04eded	0.032453466
163	0xbe0967e8	-0.13418543
164	0x3da3675e	0.079787
165	0x3dd172c1	0.10226966
166	0xbdaead40	-0.085291386
167	0xbde21488	-0.11039072
168	0xbe016d4c	-0.1263935
169	0xbda6f30c	-0.08151826
170	0xbcbc8062	-0.023010436
171	0x3bd30418	0.006439697
172	0xbbd27929	-0.006423135
173	0xbd261bd4	-0.040553883
174	0x3dd11a83	0.10210135
175	0x3c78da78	0.015188806
176	0xbdddeea0	-0.1083653
177	0xbd2c9f05	-0.04214384
178	0xbdc8c69c	-0.09803507
179	0xbd7323e0	-0.059360385
180	0xbe254b12	-0.16141918
181	0x3cd1bb27	0.025601937
182	0xbe118b92	-0.14213398
183	0x3d802129	0.06256325
184	0x3def1e75	0.11675731
185	0xbe0c7ebf	-0.13720225
186	0xbdacdfdd	-0.08441136
187	0xbe13abd3	-0.14421014
188	0x3d55a7ee	0.052162103
189	0x3d2acd1a	0.041699506
190	0xbdc5229b	-0.09625741
191	0x3dd6638a	0.10468204
192	0x3da5db35	0.08098451
193	0xbe352108	-0.17688382
194	0xbc649c4a	-0.013953278
195	0xbd90a5e0	-0.07062888
196	0xbd2279c0	-0.03966689
197	0x3dce1b35	0.10063783
198	0xbcd3922b	-0.025826534
199	0xbe046838	-0.12930381
200	0x3e07e14e	0.1326954
201	0xbe2c3077	-0.16815363
202	0xbd7c8ce1	-0.06165779
203	0x3d94ddb3	0.07268848
204	0x3e27373e	0.16329667
205	0x3e28f731	0.16500546
206	0xbd09c861	-0.03363836
207	0x3d582cd1	0.052777115
208	0xbe18385e	-0.14865252
209	0xbd29e614	-0.041479185
210	0xbd81026e	-0.062992916
211	0x3d35ff91	0.04443318
212	0xbdfc1259	-0.12308187
213	0x3d38ebe0	0.045146823
214	0x3dc76e64	0.09737852
215	0x3e15d961	0.14633705
216	0xbcbc7d5b	-0.023008993
217	0x3e2d71d0	0.16937947
218	0xbe337689	-0.17525686
219	0xbd371d94	-0.044705942
220	0x3d768b0e	0.060191207
221	0x3d0a60fe	0.033783905
222	0x3db9e933	0.09077682
223	0xbdf1e557	-0.11811321
224	0x3dd05ac9	0.10173566
225	0xbe226050	-0.15857053
226	0xbdeca72e	-0.115553245
227	0xbcdbf218	-0.026848838
228	0xbe24f016	-0.1610721
229	0xbe41f910	-0.18942666
230	0xbe1648e4	-0.14676243
231	0x3e1f2f38	0.15545356
232	0x3ccdb7ac	0.025111996
233	0xbd3d0f8e	-0.046157412
234	0x3c6122f6	0.0137412455
235	0xbe257aaf	-0.16160081
236	0xbe367936	-0.17819676
237	0xbdea5332	-0.114416495
238	0xbe35fd4e	-0.1777241
239	0x3e07ffda	0.13281193
240	0xbd949bea	-0.07256301
241	0xbd0e51bb	-0.034745913
242	0xbe10bd62	-0.14134744
243	0x3d2c70f4	0.042099908
244	0xbc811ece	-0.01576176
245	0xbe07387a	-0.13205138
246	0x3dc9598a	0.09831531
247	0x3e0c992c	0.13730305
248	0xbe0c43f2	-0.13697794
249	0x3db4e817	0.0883333
250	0xbc8a699a	-0.016896058
251	0xbc40d321	-0.011769087
252	0x3db13962	0.08653523
253	0xbd279209	-0.040910754
254	0x3e0eef9e	0.13958594
255	0x3deca3f8	0.11554712

transformer_encoder.layers.0.linear1.bias f4 [64]
0	0xbd90b443	-0.07065632
1	0x3db56851	0.088577874
2	0xbd26bdd0	-0.040708363
3	0xbdbd814f	-0.09253179
4	0xbe344ed7	-0.176082
5	0x3dedd427	0.116127305
6	0x3b6abb25	0.0035817113
7	0x3d96bd5b	0.073603354
8	0x3cea0393	0.028566157
9	0xbe0b5f3a	-0.13610545
10	0xbd873953	-0.066027306
11	0x3df81efe	0.12115286
12	0xbdc4287a	-0.09578033
13	0xbdb0e8ea	-0.08638175
14	0x3dbd63c3	0.09247544
15	0xbda13c23	-0.07872798
16	0x3d0fb74b	0.03508691
17	0xbdadb5d3	-0.08481946
18	0x3d37fc0e	0.044918112
19	0x3c8b1bb3	0.016980981
20	0xbe0786d9	-0.13235034
21	0xbe09357c	-0.13399309
22	0x3d8e5eda	0.06951685
23	0xbd6df25e	-0.058092467
24	0x3dc66d23	0.09688785
25	0x3c58fbbf	0.013243615
26	0xbd624370	-0.055240095
27	0xbd008c5f	-0.03138387
28	0xbd8f791f	-0.07005524
29	0x3db17f13	0.086668156
30	0x3e0ffd37	0.14061438
31	0xbbb46af8	-0.0055059157
32	0xbdea70c8	-0.114472926
33	0x3e008dbb	0.12554066
34	0x3e0ed7ec	0.13949555
35	0x3df40856	0.119156525
36	0xbc037e9d	-0.008025792
37	0x3d06945d	0.032856334
38	0x3c2315e0	0.009953946
39	0xbd85d0b5	-0.06533948
40	0xbe32fe82	-0.174799
41	0xbc94f1c4	-0.01818169
42	0x3d95f2a6	0.07321672
43	0x3dd08665	0.10181884
44	0x3d190ba6	0.037364624
45	0x3db224b3	0.08698406
46	0x3dd6408d	0.10461531
47	0xbcff2c78	-0.031149134
48	0x3dd9de1d	0.10638068
49	0x3c382bd1	0.011240915
50	0xbd6dafba	-0.058028914
51	0xbd97f4fe	-0.074197754
52	0xbdd81b14	-0.1055204
53	0xbe0b523e	-0.13605592
54	0x3d05b66a	0.032644667
55	0x3e2cdd71	0.16881348
56	0x3ca7a1a8	0.020462826
57	0x3c874af6	0.016515236
58	0xbd7bc380	-0.06146574
59	0xbd9de92c	-0.0771049
60	0xbd68eb6c	-0.05686514
61	0x3d8e6ccf	0.06954347
62	0x3d1c1150	0.038102448
63	0xbd8e00b0	-0.06933725

transformer_encoder.layers.0.linear2.weight f4 [32, 64]
0	0x3ce9b6d3	0.02852956
1	0xbca85560	-0.020548522
2	0xbb8fb5be	-0.004385679
3	0x3dc07e47	0.093990855
4	0xbd4e27db	-0.050330978
5	0x3df2ab56	0.11849086
6	0xbd84ba96	-0.06480901
7	0x3df4612c	0.119325966
8	0x3d51fa3b	0.05126403
9	0x3d5bdf79	0.053679917
10	0xbcc78e0b	-0.024359724
11	0xbd02630f	-0.03183275
12	0xbdb4742b	-0.0881122
13	0xbdf0f5a1	-0.117656
14	0x3da983d9	0.08277101
15	0x3dff255a	0.12458296
16	0x3d277ead	0.04089229
17	0xbd363b91	-0.0444904
18	0x3d0a7375	0.033801515
19	0xbb145957	-0.0022636259
20	0xbddf8813	-0.10914626
21	0xbdc2a3cc	-0.09503898
22	0x3d344a99	0.044016454
23	0xbd071a25	-0.032983918
24	0xbcd8a7e7	-0.02644725
25	0xbd9519a1	-0.07280279
26	0x3d724901	0.059151653
27	0xbd81048e	-0.06299697
28	0xbd1c7bad	-0.038203884
29	0x3d910698	0.07081336
30	0x3e00cc41	0.12577917
31	0x3de43840	0.11143541
32	0x3d5db0b2	0.054123588
33	0x3beef846	0.00729278
34	0x3dbee2ac	0.09320578
35	0x3de74c2d	0.11293826
36	0x3d6bcee7	0.057570364
37	0x3d1bb698	0.03801593
38	0x3d022c6c	0.031780645
39	0x3c792803	0.015207293
40	0x3db0326e	0.08603369
41	0x3d1cdd81	0.03829718
42	0xbdd29487	-0.102822356
43	0xbd978cef	-0.07399928
44	0xbdd10ccb	-0.10207518
45	0xbd0c4ab8	-0.034250945
46	0x3c1f7bf2	0.009734141
47	0xbd50c067	-0.05096474
48	0xbde0b198	-0.10971373
49	0xbdacfbfa	-0.08446498
50	0x3d345b7f	0.04403257
51	0xbbb670af	-0.005567632
52	0xbc9960b8	-0.018722877
53	0x3ccffc07	0.02538873
54	0xbca5e72d	-0.020251835
55	0xbd8488d2	-0.06471409
56	0xbd61f650	-0.055166543
57	0xbd3d8ea5	-0.046278615
58	0xbde63b52	-0.11241783
59	0xbde41a2d	-0.11137805
60	0xbd43cec2	-0.0478046
61	0x3d45f2e0	0.048327327
62	0x3dfaf926	0.122545525
63	0xba08484a	-0.000519876
64	0x3d99a2d5	0.07501761
65	0x3cfea7cd	0.031085873
66	0xbddac2dd	-0.106816985
67	0xbd92c4a4	-0.071664125
68	0xbd358530	-0.04431647
69	0xbde7a402	-0.11310579
70	0x3bc2cb52	0.005944648
71	0x3c8f9131	0.017525287
72	0xbde01de7	-0.109432034
73	0xbd1a806c	-0.03772013
74	0xbdf39ec4	-0.118955165
75	0x3debf034	0.115204245
76	0x3d820ca2	0.06350066
77	0xbd77417b	-0.06036518
78	0x3dd0c6f3	0.101941966
79	0xbdb24572	-0.08704652
80	0x3dc53893	0.09629931
81	0xbd5e7304	-0.054308906
82	0x3ceccf09	0.028907316
83	0x3d9f87f1	0.07789601
84	0x3d38ba60	0.045099616
85	0x3cae7167	0.021294309
86	0xbcc87e99	-0.024474429
87	0xbc52de93	-0.012870449
88	0x3dc78622	0.09742381
89	0xbd53b1e0	-0.051683307
90	0xbd48a0f9	-0.04898164
91	0x3b4784fe	0.003044426
92	0xbd971cab	-0.07378515
93	0xbd77d35a	-0.060504295
94	0x3a105e58	0.00055072224
95	0x3dc0874a	0.09400804
96	0x3cfa7dff	0.030577658
97	0xbdb3acff	-0.08773231
98	0x3d88ce72	0.06680001
99	0xbd666a09	-0.056253467
100	0x3ccb3206	0.024804126
101	0xbafb0049	-0.0019149865
102	0x3da49c90	0.080376744
103	0xbd320a71	-0.04346699
104	0xbd797a5a	-0.0609077
105	0xbd16bfe8	-0.03680411
106	0xbc196096	-0.009361407
107	0xbd908fa5	-0.07058648
108	0x3d96d217	0.0736429
109	0xbda05852	-0.07829346
110	0x3c2fa336	0.010720065
111	0xbdda091e	-0.1064627
112	0xbce8cb5b	-0.02841728
113	0xbd2d4145	-0.042298574
114	0xbd64ed87	-0.055890586
115	0x3d6fa06d	0.058502603
116	0xbdfb2421	-0.122627504
117	0x3bb870f6	0.0056287004
118	0xbcb64756	-0.022250813
119	0xbd97ff70	-0.07421768
120	0x3db977a5	0.090560235
121	0x3d9025ef	0.07038485
122	0x3cdfa160	0.02729863
123	0xbc16af6c	-0.009197097
124	0x3d7096ed	0.058737684
125	0xbd829a09	-0.06377036
126	0xbde596c3	-0.11210396
127	0x3ddfff03	0.109373115
128	0xbd13f932	-0.036126323
129	0x3d15f0a4	0.036606446
130	0x3c5d3910	0.013502374
131	0x3decffe2	0.11572243
132	0x3e0b188c	0.13583583
133	0xbd95ef34	-0.07321015
134	0x3c1e62a3	0.0096670715
135	0xbdbc5dc3	-0.09197571
136	0x3dbd41ef	0.092410915
137	0x3e07af39	0.13250436
138	0xbd1874a4	-0.037220612
139	0x3d0a2ea0	0.03373587
140	0xbc92bc44	-0.017912038
141	0xbc9ece32	-0.019385431
142	0x3dd03ecb	0.10168227
143	0xbdde718c	-0.10861501
144	0xbbd4b61e	-0.0064914366
145	0x3c39afbe	0.011333404
146	0xbdcc19a1	-0.09965826
147	0x3d7fc816	0.062446676
148	0x3dc4c098	0.09607047
149	0xbdb574a2	-0.088601366
150	0x3d700d4c	0.05860643
151	0x3bb1d327	0.0054267826
152	0x3e032182	0.12805751
153	0xbddbeb1e	-0.107382044
154	0x3def3d5a	0.11681624
155	0xbd146ef7	-0.036238637
156	0x3decc959	0.115618415
157	0xbd5878c0	-0.05284953
158	0x3d04e7e2	0.032447703
159	0x3ceedf90	0.029159337
160	0x3db124a7	0.08649569
161	0x3d911aed	0.07085214
162	0x3da6cedc	0.08144924
163	0xbc62311e	-0.013805656
164	0xbdb38a25	-0.08766583
165	0x3c2915be	0.010320125
166	0x3dffc74d	0.124891855
167	0x3df8dfb7	0.12152045
168	0xbd8503bc	-0.06494853
169	0x3dc3558e	0.09537803
170	0x3d8ccb19	0.06874675
171	0xbbf7a80b	-0.007557874
172	0x3da3551e	0.07975219
173	0x3bae8983	0.0053264513
174	0x3cdc1bcb	0.026868721
175	0xbd8ffd35	-0.07030717
176	0xbb911dcf	-0.0044286023
177	0x3e0dbb1b	0.13840906
178	0x3daae0a4	0.08343628
179	0xbdbcc3a2	-0.092170015
180	0x3b8845fb	0.004158733
181	0x3db9330f	0.09042942
182	0xbd2ed51f	-0.042683717
183	0xbb81a5e2	-0.0039565424
184	0x3d9496e0	0.072553396
185	0x3dec70f9	0.11544985
186	0x3dfd5fed	0.12371812
187	0xbda3c2a1	-0.07996107
188	0xbdd8f869	-0.105942555
189	0x3dd02e35	0.10165063
190	0x3b13edb9	0.0022572114
191	0x3dfb49c4	0.12269929
192	0x3db3f0c0	0.08786154
193	0xbd4f69a3	-0.050637852
194	0x3d1872e0	0.03721893
195	0x3d2bf21a	0.041978933
196	0xbd33dea3	-0.043913495
197	0x3de217f8	0.11039728
198	0x3c163cd3	0.009169775
199	0xbd2f708f	-0.042831954
200	0xbdec4af2	-0.11537732
201	0x3dcc5a2a	0.09978135
202	0xbe0261c7	-0.12732612
203	0x3dbf6125	0.09344701
204	0xbd3ecdba	-0.046582915
205	0xbccbc2db	-0.024873188
206	0x3c87daa8	0.016583756
207	0x3df7b8fa	0.12095828
208	0xbda93777	-0.08262532
209	0xbdbad836	-0.0912327
210	0x3d97c45d	0.074105
211	0xbd7e2d46	-0.062054895
212	0xbd43b89a	-0.04778347
213	0x3d92ad0c	0.07161912
214	0xbd534931	-0.051583473
215	0x3d94a552	0.07258095
216	0xbd488821	-0.048957948
217	0x3dc46f38	0.09591526
218	0x3dfc7322	0.12326647
219	0x3c609e93	0.013709682
220	0xbd39d613	-0.045370173
221	0x3d86d548	0.06583649
222	0x3d138358	0.03601393
223	0x3a0e3c98	0.0005425899
224	0x3de18c36	0.11013071
225	0xbbba18d8	-0.005679231
226	0x3d3004f9	0.042973492
227	0xbd1f806a	-0.038940825
228	0xbccc8fe3	-0.024970954
229	0xbbe68f2a	-0.0070361095
230	0x3be6a108	0.0070382394
231	0x3d580183	0.052735817
232	0x3dbbc884	0.09169105
233	0x3d99de8b	0.0751315
234	0xbd5bbad5	-0.053644974
235	0x3de6ae1c	0.112636775
236	0x3dabcb5a	0.083883956
237	0x3d36e000	0.044647217
238	0x3c506e97	0.012721679
239	0xbd948645	-0.072521724
240	0xbd9a4742	-0.075331226
241	0x3b993eaf	0.004676662
242	0xbdc14229	-0.09436447
243	0x3d2e89b2	0.042611785
244	0xbdec7c9a	-0.11547203
245	0xbde6db4f	-0.112722985
246	0xbd67d699	-0.05660114
247	0x3d92567a	0.071454
248	0x3dc124e8	0.094308674
249	0xbdd701d0	-0.104983926
250	0xbda2a73f	-0.07942056
251	0x3ccffd6a	0.025389392
252	0xbcc3001c	-0.023803763
253	0xbdd4495d	-0.103655554
254	0x3d0db9c0	0.034600973
255	0xbdd79f0b	-0.10528382

transformer_encoder.layers.0.linear2.bias f4 [32]
0	0xbda05821	-0.07829309
1	0x3d4701c6	0.048585676
2	0x3e097967	0.13425218
3	0x3dd8757c	0.10569283
4	0x3d435763	0.04769076
5	0x3ddda3f4	0.10822287
6	0xbd71424d	-0.05890112
7	0xba01d213	-0.0004952263
8	0xbdcedb83	-0.10100462
9	0xbd9a9e99	-0.07549781
10	0xbd9f8cd2	-0.07790531
11	0xbde78dd4	-0.113063484
12	0x3ce50a2e	0.027958956
13	0x3d294d20	0.041333318
14	0x3d44cde3	0.04804791
15	0x3dc28281	0.09497548
16	0xbddb8f5f	-0.10720705
17	0xbcdcf589	-0.026972549
18	0x3dc77124	0.09738377
19	0xbded0682	-0.11573507
20	0x3dbfc710	0.0936414
21	0x3d0f531c	0.03499137
22	0xbdd75610	-0.10514462
23	0x3cc34713	0.023837602
24	0x3b9f4517	0.004860531
25	0x3c9e19db	0.019299438
26	0xbd06848a	-0.032841243
27	0x3d61d8d8	0.05513844
28	0x3ddbb2f8	0.10727495
29	0x3daa2a46	0.08308844
30	0xbc81d4c1	-0.01584852
31	0xbdeb560b	-0.11491021

transformer_encoder.layers.0.norm1.weight f4 [32]
0	0x3f810b33	1.0081543
1	0x3f83ce36	1.0297306
2	0x3f7f2c48	0.9967694
3	0x3f80c660	1.0060539
4	0x3f81f8e8	1.0154085
5	0x3f81ad6d	1.013105
6	0x3f829210	1.0200825
7	0x3f802349	1.0010768
8	0x3f81db25	1.0145003
9	0x3f80d621	1.0065347
10	0x3f838c07	1.0277108
11	0x3f81f607	1.0153207
12	0x3f7ffa0b	0.9999091
13	0x3f7ea1d3	0.99465674
14	0x3f80c790	1.0060902
15	0x3f7ec4f1	0.9951926
16	0x3f7e8aea	0.99430716
17	0x3f7e48c5	0.9932979
18	0x3f8022ba	1.0010598
19	0x3f8000b3	1.0000213
20	0x3f7e4fc6	0.99340475
21	0x3f7efaf4	0.99601674
22	0x3f7ed8bb	0.99549454
23	0x3f7f24ee	0.99665725
24	0x3f8082a0	1.0039864
25	0x3f7eff2e	0.99608123
26	0x3f7e4fa4	0.9934027
27	0x3f7fdf80	0.9995041
28	0x3f7c7631	0.98617846
29	0x3f7cf068	0.9880433
30	0x3f7ecc01	0.99530035
31	0x3f7f1429	0.99640137

transformer_encoder.layers.0.norm1.bias f4 [32]
0	0x3b446525	0.0029967513
1	0xbc1ea48d	-0.009682787
2	0x3c31a125	0.0108416425
3	0x3865ca51	5.4786276e-05
4	0xbab2d239	-0.0013642973
5	0xbbcc8717	-0.00624169
6	0xba901e27	-0.0010995314
7	0x3baa2dc5	0.0051934444
8	0x3a67b201	0.00088384753
9	0x3a56f553	0.00082000083
10	0x3c00ce24	0.007861648
11	0x3a76b308	0.0009410833
12	0xbbdcfe5d	-0.0067441897
13	0x3c37a576	0.011208883
14	0xbb4aa856	-0.003092309
15	0x3c4073c6	0.011746353
16	0xbbec790e	-0.0072165793
17	0x3c156b60	0.0091198385
18	0xb94b45e2	-0.00019385622
19	0xbafdab7b	-0.0019353473
20	0x3beccd61	0.0072266315
21	0xbb4fe291	-0.0031720737
22	0xbb9b55b3	-0.0047404408
23	0xbb30e296	-0.0026990524
24	0x3b4cc0b6	0.0031242794
25	0xbb799636	-0.0038083917
26	0x3b0c77ea	0.002143378
27	0xbae02223	-0.0017100017
28	0x3c588cc3	0.013217154
29	0xbb692580	-0.003557533
30	0xbbc624a4	-0.0060468484
31	0xba05b104	-0.0005099925

transformer_encoder.layers.0.norm2.weight f4 [32]
0	0x3f80fa4b	1.0076383
1	0x3f832cf5	1.0248095
2	0x3f810688	1.0080118
3	0x3f806f84	1.0034032
4	0x3f833f3c	1.0253673
5	0x3f80f742	1.0075457
6	0x3f825f69	1.0185367
7	0x3f808dd0	1.0043278
8	0x3f81add4	1.0131173
9	0x3f80bc1d	1.0057408
10	0x3f80feab	1.0077718
11	0x3f828980	1.0198212
12	0x3f7f4147	0.9970898
13	0x3f7f5e43	0.99753207
14	0x3f80c81f	1.0061072
15	0x3f80021c	1.0000644
16	0x3f7e8250	0.9941759
17	0x3f7ea4ab	0.99470013
18	0x3f8055d5	1.0026194
19	0x3f807c61	1.0037957
20	0x3f7ed2b9	0.9954029
21	0x3f7ecceb	0.9953143
22	0x3f7dfc4a	0.9921309
23	0x3f7ee89a	0.9957367
24	0x3f800ba4	1.0003552
25	0x3f7e622a	0.99368536
26	0x3f7f103e	0.9963416
27	0x3f7fe2eb	0.99955624
28	0x3f7cebc0	0.98797226
29	0x3f805667	1.0026368
30	0x3f7ed020	0.99536324
31	0x3f7dda51	0.9916125

transformer_encoder.layers.0.norm2.bias f4 [32]
0	0x3b26c636	0.0025447733
1	0xbc37a30a	-0.011208305
2	0x3c2861fa	0.010277266
3	0xba78654a	-0.00094755425
4	0xbb16792b	-0.0022960405
5	0xbc2da7ff	-0.010599135
6	0xbb0df94c	-0.0021663485
7	0x3b22c315	0.0024835516
8	0x39e5c746	0.00043826754
9	0x39ed9412	0.00045314484
10	0x3bd2fcde	0.0064388355
11	0xb5862180	-9.993528e-07
12	0xbbf76d92	-0.0075509036
13	0x3c02de81	0.007987619
14	0xbb27c531	-0.0025599713
15	0x3c3d8228	0.011566676
16	0xbbff8956	-0.007798354
17	0x3c08717c	0.008327838
18	0xbaed299d	-0.0018094067
19	0xbba9f168	-0.0051862486
20	0x3ba10e32	0.0049150223
21	0xbb83ca47	-0.004021916
22	0xbb70f06f	-0.0036764403
23	0xbb4ddf76	-0.003141371
24	0x3822dba4	3.8828366e-05
25	0xbbbb50f0	-0.0057164356
26	0x3b1ccec2	0.0023926948
27	0xbb1f8ea7	-0.0024346502
28	0x3c12a804	0.008951191
29	0xbb92311a	-0.00446142
30	0xbbca3773	-0.006171161
31	0x38495b47	4.8007143e-05
