results/run_20251009-172843/best.pt (torch, 328784 bytes, 91 tensors)

input_proj.weight f4 [32, 1]
00000000: 6902 403f 7e2b 533f ab74 82be 0727 6b3f
00000010: 2daa 74be dd6e 433e 7f82 f9be daa0 163f
00000020: 0093 5f3f 9257 3dbf ce70 613f 085c 323e
00000030: ec00 433f 31cf 1f3e d1df eb3e 2718 22be
00000040: b7fa 423f 7576 2d3e 60e5 e3be 3d8f 8b3e
00000050: 1301 f6be aa8d 06be da60 d5be e11b 2f3f
00000060: 54b8 4ebf e2cf e7be 8891 89be fa86 1abf
00000070: f6b2 e03d 423d 7fbf b163 6a3f 3919 59bf
0.7500368 0.8248824 -0.25479636 0.91856426 -0.23893042 0.1908526 -0.48732373 0.5883919
0.8733368 -0.73961747 0.8806275 0.1741792 0.7617328 0.15606381 0.46069196 -0.15829526
0.7616381 0.16939719 -0.44510937 0.2725772 -0.48047695 -0.13139978 -0.41675454 0.68401915
-0.8075001 -0.4527579 -0.26868844 -0.6036221 0.10971634 -0.99702847 0.91558367 -0.8480411

input_proj.bias f4 [32]
00000000: d360 463f 0dc3 243e 30ad a3be d636 1e3f
00000010: 4467 203e 301b 4f3f 1028 ce3d 9740 9fbe
00000020: 76f5 853e ff42 8cbe 0dca da3e e333 623f
00000030: 5ed8 123f f6ec dfbe 32d5 123f f9a7 413e
00000040: cd32 ff3e ee46 1bbf 03ad 7dbf ac71 c8be
00000050: dd41 44bf 1988 523f f8e6 913e 9293 d33e
00000060: 4e96 a33e a401 bdbc 4b11 493f 8d01 35bf
00000070: 1630 853d e1d5 2fbf 4f8e a13e 63f7 b0be
0.7749149 0.16090031 -0.3196807 0.61802423 0.15664393 0.8090086 0.10066235 -0.31103966
0.26163834 -0.27394864 0.42732278 0.8836042 0.573614 -0.43735474 0.5735656 0.18911733
0.49843445 -0.60655105 -0.9909212 -0.39149225 -0.76663 0.8223892 0.28496528 0.41323525
0.3195061 -0.023072071 0.7854201 -0.7070549 0.06503312 -0.6868573 0.31553885 -0.3456374

pos_encoder.pe f4 [1, 240, 32]
00000000: 0000 0000 0000 803f 0000 0000 0000 803f
00000010: 0000 0000 0000 803f 0000 0000 0000 803f
00000020: 0000 0000 0000 803f 0000 0000 0000 803f
00000030: 0000 0000 0000 803f 0000 0000 0000 803f
00000040: 0000 0000 0000 803f 0000 0000 0000 803f
00000050: 0000 0000 0000 803f 0000 0000 0000 803f
00000060: 0000 0000 0000 803f 0000 0000 0000 803f
00000070: 0000 0000 0000 803f 0000 0000 0000 803f
00000080: a46a 573f 4151 0a3f ba7d 083f 0d94 583f
00000090: 3e39 9f3e 6b4e 733f 3a23 353e 83f6 7b3f
000000a0: 7675 cc3d 98b8 7e3f ae36 663d 6898 7f3f
000000b0: 5b81 013d 3cdf 7f3f 42ab 913c a3f5 7f3f
000000c0: 57d6 233c b9fc 7f3f 5a44 b83b f7fe 7f3f
000000d0: 1c3e 4f3b acff 7f3f 2015 e93a e6ff 7f3f
000000e0: 6d12 833a f8ff 7f3f 136a 133a fdff 7f3f
000000f0: 61cb a539 ffff 7f3f 5377 3a39 0000 803f
00000100: b7c7 683f 3311 d5be 0af2 663f b2e8 dc3e
00000110: 1b54 173f ec7b 4e3f f647 b23e a6fa 6f3f
00000120: f86f 4b3e a5e5 7a3f 86d9 e53d f361 7e3f
00000130: c870 813d f97c 7f3f 5ca5 113d 8ed6 7f3f
00000140: 3ed4 a33c e5f2 7f3f 9b43 383c dbfb 7f3f
00000150: d83d cf3b b1fe 7f3f 0815 693b 96ff 7f3f
00000160: 6812 033b dfff 7f3f 126a 933a f5ff 7f3f
00000170: 60cb 253a fdff 7f3f 5377 ba39 ffff 7f3f
00000180: c381 103e 2670 7dbf d745 7e3f ab7f edbd
00000190: c209 503f 582f 153f 6c2f 023f 296d 5c3f
000001a0: 6c4e 973e ef90 743f d7ee 2b3e 9e5d 7c3f
000001b0: c0ff c13d 4fd9 7e3f 4e69 5a3d c3a2 7f3f
000001c0: 1fb9 f53c 83e2 7f3f c631 8a3c adf6 7f3f
000001d0: 0d6e 1b3c 0dfd 7f3f a8cf ae3b 11ff 7f3f
000001e0: 929b 443b b5ff 7f3f 171f dd3a e8ff 7f3f
000001f0: 10b1 783a f9ff 7f3f 7ed9 0b3a feff 7f3f
00000200: cfbd 41bf 3055 27bf ec49 473f 9eaf 20bf
00000210: de1d 743f b12e 9a3e bc1f 273f edeb 413f
00000220: d761 c73e a7ca 6b3f c565 643e 098d 793f
00000230: 882e 013e 69f4 7d3f c88d 913d 465a 7f3f
00000240: dbcb 233d 94cb 7f3f a040 b83c 6cef 7f3f
00000250: c93c 4f3c c2fa 7f3f a714 e93b 58fe 7f3f
00000260: 5712 833b 7aff 7f3f 0c6a 133b d6ff 7f3f
00000270: 5ecb a53a f3ff 7f3f 5277 3a3a fcff 7f3f
00000280: 107c 75bf 2c3c 913e d8da a53e 4032 72bf
00000290: 7ffc 7f3f e972 29bc abca 463f f14c 213f
000002a0: 4377 f53e 40a9 603f ed11 8e3e 7cf2 753f
000002b0: 1d3c 213e 81ce 7c3f 21db b53d 1efd 7e3f
000002c0: f4b6 4c3d 19ae 7f3f fb4d e63c 19e6 7f3f
000002d0: 7e85 813c cff7 7f3f bbac 113c 69fd 7f3f
000002e0: ddd6 a33b 2eff 7f3f 8944 383b beff 7f3f
000002f0: 333e cf3a ebff 7f3f 2615 693a f9ff 7f3f
00000300: 8c0f 8fbe b8cd 753f 76e5 6bbe 531d 79bf
00000310: 4e78 723f 6d3f a4be 8830 603f 352f f73e
00000320: 688c 103f 3249 533f fc7d a93e e290 713f
00000330: 6e20 413e e367 7b3f c219 da3d 518b 7e3f
00000340: d19c 753d 128a 7f3f be2c 0a3d b3da 7f3f
00000350: 436c 9b3c 34f4 7f3f 05cf 2e3c 45fc 7f3f
00000360: 589b c43b d2fe 7f3f 031f 5d3b a1ff 7f3f
00000370: 08b1 f83a e2ff 7f3f 7cd9 8b3a f7ff 7f3f
00000380: 4630 283f bdff 403f 70b6 36bf 5e4f 33bf
00000390: 6ee8 4c3f bc74 19bf 4484 723f baf8 a33e
000003a0: 72eb 243f b3cc 433f de60 c43e c66b 6c3f
000003b0: 50d3 603e eac0 793f ba46 fe3d e904 7e3f
000003c0: 323e 8f3d 815f 7f3f 5e31 213d 3bcd 7f3f
000003d0: a252 b53c f2ef 7f3f 2af1 4b3c ecfa 7f3f
000003e0: c55f e53b 65fe 7f3f bcfc 803b 7eff 7f3f
000003f0: ed11 113b d7ff 7f3f 6628 a33a f3ff 7f3f
0.0 1.0 0.0 1.0 0.0 1.0 0.0 1.0
0.0 1.0 0.0 1.0 0.0 1.0 0.0 1.0
0.0 1.0 0.0 1.0 0.0 1.0 0.0 1.0
0.0 1.0 0.0 1.0 0.0 1.0 0.0 1.0
0.84147096 0.54030234 0.53316844 0.8460091 0.3109836 0.9504153 0.17689219 0.9842302
0.099833414 0.9950042 0.05620449 0.9984193 0.031617504 0.99950004 0.017781857 0.99984187
0.009999833 0.99995 0.0056233825 0.9999842 0.0031622713 0.999995 0.0017782785 0.99999845
0.0009999998 0.9999995 0.0005623411 0.9999998 0.00031622782 0.99999994 0.00017782794 1.0
0.9092974 -0.41614684 0.9021307 0.43146282 0.5911271 0.8065784 0.34820527 0.93741834
0.19866931 0.9800666 0.1122313 0.9936821 0.063203394 0.9980007 0.03555809 0.9993676
0.019998666 0.9998 0.011246587 0.99993676 0.006324511 0.99998003 0.0035565514 0.9999937
0.0019999985 0.99999803 0.0011246821 0.99999934 0.0006324556 0.9999998 0.00035565588 0.99999994
0.14112 -0.9899925 0.9932532 -0.11596616 0.8126489 0.58275366 0.5085361 0.86104065
0.2955202 0.9553365 0.16790329 0.9858035 0.094726086 0.99550337 0.053323083 0.9985773
0.0299955 0.99955004 0.016869437 0.9998577 0.009486687 0.999955 0.005334813 0.99998575
0.0029999954 0.9999955 0.0016870227 0.99999857 0.00094868336 0.9999996 0.0005334838 0.9999999
-0.7568025 -0.6536436 0.7784717 -0.6276797 0.95358074 0.30113748 0.652828 0.7575062
0.38941833 0.921061 0.22304447 0.9748083 0.12615407 0.99201065 0.07107121 0.9974712
0.039989334 0.9992001 0.022491753 0.99974704 0.01264877 0.99992 0.0071130577 0.9999747
0.003999989 0.999992 0.0022493629 0.9999975 0.0012649109 0.9999992 0.0007113117 0.99999976
-0.9589243 0.2836622 0.32393527 -0.94607925 0.99994653 -0.010342338 0.77652997 0.6300803
0.47942552 0.87758255 0.2774805 0.96073127 0.15745588 0.987526 0.08879686 0.99604976
0.049979165 0.99875027 0.028113356 0.99960476 0.015810724 0.999875 0.00889128 0.9999605
0.004999979 0.9999875 0.0028117022 0.99999607 0.0015811383 0.99999875 0.0008891396 0.9999996
-0.2794155 0.96017027 -0.23036751 -0.9731037 0.9471482 -0.3207964 0.8757405 0.48278204
0.5646424 0.8253356 0.3310393 0.943617 0.18860027 0.98205394 0.10649444 0.9943133
0.059964005 0.99820054 0.033734076 0.99943084 0.018972522 0.99982 0.0106694745 0.9999431
0.0059999637 0.999982 0.0033740408 0.99999434 0.0018973658 0.9999982 0.0010669674 0.99999946
0.6569866 0.75390226 -0.7137213 -0.7004298 0.8004216 -0.5994375 0.9473307 0.320257
0.6442176 0.7648422 0.38355154 0.9235195 0.2195561 0.9755999 0.12415834 0.9922624
0.06994285 0.997551 0.03935372 0.9992253 0.022134129 0.999755 0.012447635 0.9999225
0.006999942 0.9999755 0.0039363783 0.99999225 0.0022135929 0.99999756 0.0012447953 0.9999992

transformer_encoder.layers.0.self_attn.in_proj_weight f4 [96, 32]
00000000: 32da d8bd 9249 34be 8033 0c3b f893 fbbd
00000010: a186 353e c06a 50be 7c17 c03d 8390 573e
00000020: 8554 e73d 07f6 8b3d 1197 50be 0f28 5a3e
00000030: f22c 05bd 4b7c 53be 261b 5f3e 646d bcbd
00000040: 9453 33bc 7dfd 453e 5efb 1dbe 1fa8 18be
00000050: 6cc8 fd3c ffbc c9bc 1b64 5e3d c878 35be
00000060: d04b 323c ee48 bcbd 67ff d0bd cd89 46be
00000070: ce44 f43d 877e 3c3d cae7 36be a465 343e
00000080: b494 873d b2d8 363d ade5 01be b68f 0a3d
00000090: 5948 553e 750a 193e 5d5f 27be a16a 483e
000000a0: 58ba a03c eee2 d43d 125e 2c3e bd4e 3e3e
000000b0: fece 2abe e356 3f3e 3bd1 14be 17a4 7d3c
000000c0: 2369 19be 751d 47bd e6d8 3abc cf7b c6bc
000000d0: 2560 12bd a10b 983c f431 5c3e 7550 023e
000000e0: b017 fb3d 0c88 b43d 6325 2d3e 11b2 0abc
000000f0: b985 983c 58f0 3c3d 8ff0 3fbe d10b 31be
00000100: f383 f43c ec25 a9bd b58f e9bb d3df 3dbd
00000110: ce61 193d 663f 143e 9298 8fbd d5cd 2e3e
00000120: b87a 323e 5687 2dbe 9257 28be 5812 30be
00000130: cd02 ecbd 2e3c b3bd 906b 54bc 7d19 64bd
00000140: 1525 d9bd 90f1 93bd 652c a7bd 56df 5c3e
00000150: 3420 abbd 984b 1bbe f73f bf3d 12e2 15bc
00000160: 5e34 2d3e 41f8 0d3e 0f24 4f3e 03e5 1ebe
00000170: 25ff 113e 5a84 3d3e fa17 d4bd c83e 4f3e
00000180: 503d 273e e02d ae3b 0725 d53d c331 99bd
00000190: 387e 41be 1ccb 613d f62e 8a3d cc26 13be
000001a0: f6a3 da3d 1f05 3fbe 9eee 3f3e 49ad 573e
000001b0: e2da 783d 6705 0cbe e88e d93d dae8 233d
000001c0: 9fd2 743d 95dc 8f3d 1eb8 273e 179c bcbd
000001d0: cd97 4bbd 9bb6 753d 9af2 c83c b8c1 333e
000001e0: aa08 e7bd 4c35 e3bb 9b8f 293d 82c2 67bd
000001f0: 791e 183e 087f c93c b1e6 4bbe 477c b8bc
00000200: 3606 c7bd b7be bf3c ac02 d7bc 1c27 5bbe
00000210: c53c 19bd 0626 abbc c6e8 7ebd 8420 4a3e
00000220: 8459 40bd 6838 0d3e 348b 613d 4e55 3abe
00000230: 0d42 563d 63e6 353e 34f1 0fbe bb61 09be
00000240: 50a5 593e 197e 323e 41c2 f9bd f092 063e
00000250: ea71 ebbc 4bcc 59be 930b 8a3c 39cd 903d
00000260: c1ae 83bd 25c5 9b3d c2da 3cbe 2d63 1a3e
00000270: 4fa1 3d3e 2801 f63d 1c52 193d 9888 933d
00000280: 4294 21be 6c4d 5abd 9e36 9dbc e19e f8bd
00000290: b331 25be 0534 143e e35b 183e e3ac 49be
000002a0: de40 8d3d e916 b73d acbe 513e 365c ff3d
000002b0: f300 4b3e 1143 90bd 7a9c 1a3e 5250 323e
000002c0: 1efb 51be 3676 31be f290 363d 94b4 f03d
000002d0: e1d1 dabd eadb bd3c 6be0 75ba 9ebc 5d3d
000002e0: 1c9d efbd 59c2 f83d 6ec1 123e eb82 1abe
000002f0: 2684 bd3a 1856 29b8 c9f9 8c3d 29da 4d3e
00000300: fda2 883d 17ee 37bd f9a4 443e 621e a2bd
00000310: 152f 7fbd 6adb 8e3c d0dd 25be ef58 a83c
00000320: efbe 12be 83f9 983c 0f4d ba3c ab59 053d
00000330: 3774 37be 5671 53be 2094 d03d 4339 3d3e
00000340: b9d6 41be e358 9c3d a9a7 25be b5b6 813c
00000350: 59b6 4b3e a300 2b3e 8b15 1fbe 23fc 0b3e
00000360: 3971 ed3d 8c48 203b 3ea6 593e 8676 aabd
00000370: 3752 42bd 8f75 dabd 383c 0b3d 8f2f 763d
00000380: f670 943c 4de1 f4bd e3ee c9bd 01fa 983d
00000390: deae 41be af33 02bd d369 073b 131d b8bd
000003a0: d5d0 a63d c3de 783c 7a3c 1d3e 0bbc 8ebc
000003b0: 04eb 0abe 33c1 163e 464b 083d c523 7cbd
000003c0: cd49 10be 9b59 4f3d 850b 56be bca9 753d
000003d0: 476b d63d dd81 40be 1c76 0fbe 477f 1dbe
000003e0: 492a 3c3e ee6a 3e3e 66e7 7b3c 8c30 523e
000003f0: 0f12 91bd 621c 55be 782d 9e3d 6e12 a13d
-0.105884925 -0.1760619 0.0021393 -0.12284082 0.17727138 -0.20353222 0.09379479 0.2105122
0.11295418 0.06834035 -0.20370127 0.21304344 -0.032513566 -0.20652883 0.217877 -0.09200552
-0.01094522 0.1933498 -0.1542792 -0.14907883 0.030979358 -0.024626253 0.054294687 -0.17721856
0.010882333 -0.09193598 -0.10204964 -0.19388504 0.11927186 0.046019103 -0.17861858 0.17616898
0.0662016 0.04464025 -0.1268527 0.03382846 0.2082838 0.14945395 -0.16344972 0.19571926
0.019620106 0.10394846 0.1683276 0.18584724 -0.16680524 0.18685488 -0.1453294 0.015481017
-0.14981513 -0.048612077 -0.011404252 -0.024228958 -0.03573622 0.018560233 0.2150343 0.12726004
0.122603774 0.088150114 0.16908793 -0.008465306 0.018618451 0.046127647 -0.1874411 -0.17289664
0.029848075 -0.08259186 -0.007127727 -0.046356034 0.03744679 0.1447731 -0.07011522 0.17070706
0.17429626 -0.16946158 -0.16439655 -0.17194498 -0.11523972 -0.08751713 -0.012965098 -0.05568837
-0.10602776 -0.07223809 -0.081627645 0.21569571 -0.08355752 -0.15165555 0.09338372 -0.009148138
0.16914508 0.13864233 0.20228599 -0.15517049 0.14257486 0.1850752 -0.10356136 0.20238793
0.16331983 0.0053155273 0.10407453 -0.074801944 -0.18895805 0.05512534 0.06747238 -0.14370269
0.10675804 -0.18654297 0.18743369 0.21062197 0.060755618 -0.13673936 0.1062296 0.040016986
0.059771176 0.070244946 0.16378829 -0.09209459 -0.049705315 0.0599886 0.024529744 0.17554367
-0.112809494 -0.0069338437 0.04139672 -0.05658198 0.14855374 0.024596706 -0.1991222 -0.022520198
-0.097179815 0.02340637 -0.026246391 -0.21401638 -0.03741147 -0.020892154 -0.06223371 0.19738966
-0.04696037 0.13791049 0.055064395 -0.18196604 0.052309085 0.17763667 -0.14056855 -0.13416187
0.21254468 0.17430915 -0.12195254 0.1314199 -0.028740842 -0.21269338 0.016851222 0.07070393
-0.06429816 0.07605962 -0.18442824 0.15076895 0.18518566 0.12011939 0.03743182 0.072037876
-0.15779212 -0.05329649 -0.019191083 -0.12139679 -0.1613224 0.14472969 0.14878802 -0.19694857
0.06897138 0.08939917 0.20482892 0.1246876 0.19824581 -0.07044042 0.15098754 0.17413452
-0.2050595 -0.1733025 0.044571824 0.117531925 -0.106845625 0.023176152 -0.0009379449 0.054134957
-0.11699888 0.12146444 0.143316 -0.15089004 0.0014458939 -4.037292e-05 0.0688358 0.20102753
0.066717125 -0.044904795 0.19203557 -0.07915951 -0.06230076 0.01743861 -0.16197896 0.02055022
-0.14330648 0.018673664 0.022741823 0.032556217 -0.17915426 -0.20648703 0.101845026 0.18478875
-0.18929566 0.07634141 -0.16177239 0.015834192 0.19893779 0.16699462 -0.15535562 0.13670401
0.11593861 0.0024457304 0.21254823 -0.08323388 -0.047441687 -0.10666954 0.033992976 0.06010395
0.01812027 -0.11957035 -0.09860017 0.074695595 -0.18914363 -0.03178757 0.0020662441 -0.089899205
0.081453 0.015189829 0.15355101 -0.01742365 -0.13566214 0.14722137 0.03327491 -0.06155755
-0.14090653 0.050622564 -0.20902832 0.059976324 0.1046968 -0.18799539 -0.14009899 -0.15380584
0.18375506 0.18595478 0.015374994 0.20526332 -0.070835225 -0.20811608 0.07723516 0.07864843

transformer_encoder.layers.0.self_attn.in_proj_bias f4 [96]
00000000: af32 8f3b fc66 c13a 2578 5c3b 90ae 793a
00000010: 246d 413a 0aa4 2dba 6cc1 363b 56b7 f23a
00000020: c0cc adba 57ce ecbb f0fb 453b 11e8 803b
00000030: 63ba 1ebb 6852 d539 19b1 a23b d54e f2bb
00000040: dc75 3bbc 8f3c 36bb 4f63 00bc 5780 23bc
00000050: c1a1 ca3b 5eda 0d3c 9d82 0b3c 1cfc cf3b
00000060: 7976 b2ba 0522 e4bb 7719 283c 6f3c d4ba
00000070: b819 1cba 593c 303c e6d4 82bb 3d1a 0f3c
00000080: 6879 0938 a7f7 ce37 59d2 8c36 f85c fb35
00000090: 6ce4 46b7 9961 1636 0cf2 98b6 2054 b536
000000a0: 53f8 1bb7 1e52 6037 8d81 c1b4 3cf2 a236
000000b0: 52b8 fa36 8162 6235 8b1a b5b6 ee5d d236
000000c0: 5f49 83b7 2a85 b7b6 0d4d 6337 849c ebb5
000000d0: 4f09 9cb7 8bfc c237 2e27 95b7 332c 2b37
000000e0: acfa 5335 c8c8 2ab7 d54f a3b5 8423 3937
000000f0: ccda c736 10e7 4d35 32eb c436 bd17 c1b7
00000100: 3627 573b 3362 93b9 b99d 6b3b 0217 493b
00000110: 84ea e339 6b5d 073c 3f1f ab3b da5d 53ba
00000120: fc0d a4bb 0a69 62bb cf13 803b 1d97 23bb
00000130: 28e8 61ba e1e4 b13a 9818 4cba 4abf c03b
00000140: 8c08 5a3a 36bc 093c 08d5 623b 29ba 88bb
00000150: 4636 fbba 0cf3 00bc 70df 04bc d3e4 9cba
00000160: fea5 92bb c0ba b1bb 4697 f93a 1e6d 4bbc
00000170: 1187 283b 905f 073c baed 1f3c 3959 7bbb
0.0043700556 0.0014755423 0.0033640948 0.0009524608 0.0007378629 -0.000662387 0.0027886285 0.0018517773
-0.0013259873 -0.007226746 0.003020998 0.0039339145 -0.0024219982 0.00040687923 0.0049649593 -0.0073946514
-0.011441674 -0.0027807092 -0.007836177 -0.009979329 0.0061838333 0.00865802 0.008515027 0.0063471925
-0.001361563 -0.0069620633 0.010259978 -0.0016192327 -0.000595476 0.0107565755 -0.0039926646 0.008734283
3.2776414e-05 2.4672436e-05 4.196813e-06 1.8728015e-06 -1.1854903e-05 2.240855e-06 -4.558131e-06 5.404014e-06
-9.296537e-06 1.337056e-05 -3.6043312e-07 4.856176e-06 7.4720383e-06 8.43349e-07 -5.3973104e-06 6.2694226e-06
-1.5650583e-05 -5.4693273e-06 1.3548194e-05 -1.7554416e-06 -1.8600984e-05 2.3244202e-05 -1.7780429e-05 1.0202685e-05
7.89684e-07 -1.0179538e-05 -1.216768e-06 1.1035128e-05 5.9561335e-06 7.670469e-07 5.8686355e-06 -2.3018447e-05
0.0032829768 -0.0002811119 0.0035952164 0.003068388 0.00043471542 0.008262019 0.0052222307 -0.0008062996
-0.00500655 -0.0034547471 0.0039086114 -0.0024961897 -0.0008617663 0.001357224 -0.0007785647 0.0058821784
0.00083173136 0.008406689 0.003461184 -0.0041725826 -0.0019165955 -0.007870447 -0.008109912 -0.001197005
-0.004475354 -0.0054238737 0.0019042275 -0.012416152 0.0025715271 0.00826253 0.009761268 -0.0038352741

transformer_encoder.layers.0.self_attn.out_proj.weight f4 [32, 32]
00000000: 03e1 7a3d b7bf f1bc e087 1d3e 2c78 c8bd
00000010: d9be e6bd f3b3 eabd e106 1b3e fc1f 543d
00000020: a733 363e 5ab7 1bbe c92a 3bbe bae6 14be
00000030: 7f04 01be 39d0 823d 0f47 903d efa6 0e3e
00000040: 959c c1bd 387c 03be 503e b93d 74c5 a0bd
00000050: bb5a ea3d 126a 0abd c72c e03d 55cf 13be
00000060: 7c7c a6bd 6716 403d fd4e 363d f439 18bd
00000070: 96d8 c83d f690 e33d 8d77 f9bd c01e b2bd
00000080: 7a6a 1f3e 712d 87bd 0228 8dbd 3d65 34be
00000090: ef9b c2bd 82c5 453d 6ad1 8dbc b4ee fbbd
000000a0: 8feb aaba 9029 e8bd fb0c 13be 4dc6 babd
000000b0: 80ab 18be 1a0a dabd 75c2 2e3e 03f2 1f3d
000000c0: 0fb3 723d eba9 22be 2b3b f3bd 0e87 57bd
000000d0: 0554 af3c 9fc9 24be ccf0 9dbd bfad cbbd
000000e0: 4c36 b9bb 1422 74bd d7a4 98bc 316e 00be
000000f0: 7ef2 ebbd 8f75 c9bd 7f42 89bd cc42 15be
00000100: d077 1b3e 354b febc 879e 1f3e 17bb 6d3d
00000110: 5354 1dbe f5f6 f13d 8eb8 57bd 96a9 90bd
00000120: 3120 12be 7eca 37be f4f1 3d3d c6db 2cbd
00000130: e5ea 863d 9e48 18be 0921 0a3e 2fb1 08be
00000140: 2d9e 1cbd b6c4 053d 7c9c b93d 3681 0e3e
00000150: e193 283e cc22 0bbe 1fa9 423d 7269 a3bd
00000160: a8ac 76bc d7f5 0abe 6cd1 283e c6d3 00be
00000170: 1c90 b93d 72b2 6b3d ea76 793d 3e80 bbbd
00000180: cea0 243e ffdf 1d3d fde5 b93c 81ba 1ebe
00000190: 032a 983d 38ca cfbc c093 a4bd 3836 1b3e
000001a0: 4ab0 1e3d 17e6 c7bd a650 b6bd 135b 0bbc
000001b0: afc7 c93d ed80 37bd 8c70 cebd c3af 76bd
000001c0: c9c2 01be 5537 823d 6329 0c3e f4c5 2abe
000001d0: f504 283d 5413 b93d f0cd df3c d9d2 80bd
000001e0: dd8f bb3d 33e0 bc3d d621 873d 81e6 01bd
000001f0: a120 3fbd b740 a63c c0f9 f7bc 0584 58bd
00000200: 9829 e33d 9aa7 1b3e 67ac 8fbc 714f 2bbd
00000210: 147c 1e3b 36da 3ebc a895 2d3d c065 4b3d
00000220: 6316 26be 85a5 84bd 5c44 1a3e 7801 8d3d
00000230: 157a d2bb 4f2b d6bd df84 e1bd 533d 22be
00000240: 3d8d 71bd b8f1 723d 212d eb3d e547 a73d
00000250: 3bfb 1fbe 8f3c d9bd 2c96 f5bc bc24 2f3e
00000260: 8f47 d53c 4037 3cbd 35ca 953d fd4d 89bd
00000270: e66f eabd e43b 033e 64a7 a8bd c74e 10bd
00000280: fae6 33be 7838 f23d 962d 093e 4fe2 843d
00000290: 8f44 fcbd 4ab1 33be 8e0b 13be cd28 063e
000002a0: 671b ae3d d17b 183e b900 be3d d778 363d
000002b0: dd27 20bb 4f43 0abe f6db 1abe 2894 29be
000002c0: 71ef 9b3d 91a2 b1bd 0d66 1ebd ef9d d0bd
000002d0: 79af 02bd da98 febd 8c40 e7bd 0695 6f3d
000002e0: 4cf3 57bd 26e9 de3d 2c24 68bd 42a2 04be
000002f0: fcfa ffbc a3ef afbd b6ba 5dbd 5a5d 2cbe
00000300: 6967 c23d 21f1 01be 6802 ae3d bd5b 9c3d
00000310: c060 053e 9290 06be ea47 063e bc63 a2bd
00000320: 60f6 7a3d 10a2 2d3e 1727 abbc 7368 2a3b
00000330: 36e5 15bd cd04 13be ac7e a53d 296a 2fbe
00000340: 2d1b e13d 3479 0b3e b058 343e 9428 1bbd
00000350: b7cf 18be 649c 113d 3a85 be3d 8d18 30be
00000360: 9ddc 34bd 3562 d1bd afb4 9ebc 8cb9 babd
00000370: 24e2 8bbd a586 54bd 7ea4 2fbe 5b6a 103e
00000380: 0b48 1b3e 9e70 c5bc aa89 87bc ea00 8ebd
00000390: 7346 27be d1a7 34be cadc 7c3d 0d01 cdbd
000003a0: 1dd6 dfbd 0af8 8cbc 039c 80bd 613f 78bd
000003b0: 2467 273b beb6 27bd 16e4 6abd 11e8 b4bd
000003c0: 2108 1abe 8cc3 133e c1b8 9bbd a0a4 323d
000003d0: 7cd1 6cbd b2ce 983c a0a6 2f3e 9f6e 9f3d
000003e0: 60a8 18be 8c9a 893d 4c86 2f3e 2bfa 4e3d
000003f0: 9d26 eb3d 14cc 2d3e 001d c4bc c7ff 253d
0.061249744 -0.029510362 0.15383863 -0.09788546 -0.1126687 -0.11460104 0.15139343 0.051788315
0.17793141 -0.15206662 -0.1827804 -0.1454114 -0.12599371 0.063873716 0.07044803 0.13930868
-0.09453694 -0.12840354 0.09045088 -0.07850161 0.11443087 -0.033792563 0.109460406 -0.1443456
-0.08129212 0.046896365 0.044508923 -0.037164643 0.098069355 0.111116335 -0.121810056 -0.08697271
0.15567961 -0.06600464 -0.068923965 -0.17616744 -0.09502398 0.04828406 -0.01731177 -0.123013884
-0.0013040173 -0.113360524 -0.1436042 -0.09119854 -0.14909172 -0.10646458 0.17066367 0.03904916
0.059252795 -0.15885131 -0.1187652 -0.052619033 0.021402368 -0.16092537 -0.07711944 -0.09945249
-0.0056522246 -0.059602812 -0.01863329 -0.12542035 -0.11520861 -0.09836876 -0.06702136 -0.14576262
0.15182424 -0.03104172 0.15587817 0.05803975 -0.15364198 0.118146814 -0.05266624 -0.07063596
-0.14270093 -0.17948338 0.046373323 -0.04220178 0.06587771 -0.14871451 0.13489164 -0.1334884
-0.038236786 0.0326583 0.0906305 0.13916478 0.16462661 -0.13587493 0.047524568 -0.079790965
-0.015055813 -0.13570343 0.16486138 -0.12580785 0.0906069 0.057543226 0.06090442 -0.0915532
0.16076967 0.038543697 0.022692675 -0.15500833 0.07429888 -0.02536498 -0.080359936 0.15157402
0.03874234 -0.09760683 -0.08902101 -0.0085056005 0.0985254 -0.044800688 -0.1008006 -0.060226213
-0.12671961 0.0635821 0.13687663 -0.16677076 0.041020352 0.0903689 0.027319878 -0.06290216
0.09158299 0.0922245 0.065982506 -0.031713966 -0.046661977 0.02029453 -0.030270457 -0.05286028
0.11091918 0.15200654 -0.017538263 -0.041823808 0.0024182843 -0.011648705 0.04237905 0.049657583
-0.16219477 -0.06476883 0.1506514 0.06885046 -0.0064232447 -0.10457479 -0.11011671 -0.15843706
-0.058972586 0.059312552 0.11483217 0.0816801 -0.1562318 -0.10607254 -0.029978834 0.17103857
0.026035098 -0.045951128 0.073139586 -0.06704328 -0.11447124 0.12815815 -0.08235052 -0.035231378
-0.1756858 0.11827177 0.13396296 0.064884774 -0.12317764 -0.17548099 -0.14359877 0.13101502
0.0850132 0.14890982 0.092774816 0.044548836 -0.0024437823 -0.13502239 -0.15122971 -0.16560423
0.07614029 -0.08673585 -0.038671542 -0.101863734 -0.031905625 -0.12431498 -0.11291608 0.05849173
-0.05272226 0.10884313 -0.05667512 -0.12952521 -0.031247608 -0.08590629 -0.05413314 -0.16832486
0.0949238 -0.1268964 0.08496553 0.07634685 0.13025188 -0.13141087 0.1311337 -0.07929179
0.061270118 0.16956353 -0.020892663 0.0026002198 -0.036595546 -0.143573 0.08080801 -0.1713034
0.109915115 0.13620454 0.17611957 -0.037880495 -0.14922987 0.035549536 0.09302755 -0.17196865
-0.044155706 -0.1022381 -0.019373266 -0.091174215 -0.06830242 -0.05188622 -0.17152593 0.14103071
0.15164201 -0.024101552 -0.016545136 -0.06933768 -0.16335468 -0.17642142 0.061734 -0.10009966
-0.10929511 -0.017208118 -0.06279757 -0.060607318 0.0025543654 -0.04094576 -0.057346426 -0.08833326
-0.15042163 0.14430064 -0.076035984 0.04361403 -0.057816967 0.018653248 0.17153406 0.07784771
-0.1490798 0.067189306 0.17141074 0.050531548 0.11481974 0.16972381 -0.02393961 0.04052713

transformer_encoder.layers.0.self_attn.out_proj.bias f4 [32]
00000000: 3261 ec3b 6a04 cdbb a0ae 7d3b 20f5 50b8
00000010: b6fa e738 7085 a137 7e6c 81bb 18b2 6e3b
00000020: 00d3 d535 c3e1 53ba e150 db3b 84a3 f8bb
00000030: 6268 feba 3fa6 783b 75e7 c1bb dc6f 233c
00000040: 33cc 11bc 3e86 d53a e006 94bb 99a7 b7bb
00000050: f45b 3c3b eb88 493b 727a 1ebb 99f2 3eb9
00000060: d698 a03b b462 cdbb e0db 8d3b a009 e63a
00000070: 7e38 033c 757d 5bbb b3c1 b83b 3eeb 74ba
0.007213735 -0.0062566297 0.003870882 -4.9819355e-05 0.00011061637 1.9254832e-05 -0.003949701 0.003642207
1.5931146e-06 -0.00080826523 0.006692991 -0.007587852 -0.0019409771 0.0037940887 -0.0059174844 0.0099754
-0.008898783 0.0016290618 -0.004517421 -0.005604696 0.0028741332 0.0030751775 -0.002418187 -0.00018210187
0.004901032 -0.00626787 0.0043291897 0.0017550476 0.008009074 -0.0033491526 0.005638325 -0.0009342915

transformer_encoder.layers.0.linear1.weight f4 [64, 32]
00000000: 7b05 023e 606f ca3d e5cf 75bc bdf5 253e
00000010: 073a a4bd 12d0 cf3b cefe 32bd 0153 01be
00000020: d428 acbd 9826 373d ca3c 92bc d0b7 f1bd
00000030: dd98 ccbc 8485 0a3d 63af 04be 17d9 db3d
00000040: 3fdc 1bbe f4db 0d3b 7a97 11be 4030 24be
00000050: 6175 9ebc cb2b 223e 9fda 283e 7808 7c3d
00000060: c0e2 0a3e 017b cabd 722d d33d 16f5 d73d
00000070: f8bb 2abe b411 0dbe bd23 9b3d 776d 8e3c
00000080: 98d7 edbd 0649 13be 4648 f63d a888 ca3c
00000090: e874 96bb e43a 29be 00cf 243e 39bf f9bd
000000a0: 35b2 a73d 3763 d2bc aced 893b e41d be3d
000000b0: cf62 36bd 0914 63bd 0f27 183e d20e 10be
000000c0: 6e26 ac3d 771f 4cbd 1e30 83bd 8f11 eb3d
000000d0: ea7a c93c a88d 23be 7e00 273e 6392 a9bd
000000e0: 1d6a 213e 44f2 4dbd c4c7 253e 90ab 6d3d
000000f0: 36ef 61bc 9d75 a63d 8095 f1ba 5546 c3bd
00000100: 20f6 cc3d be65 f33d 38d3 c7bc b194 2d3e
00000110: d4a7 153c b700 cabd 60fa cdbd 1942 eb3d
00000120: 0d45 8abd f26b df3d 6077 33be 1064 d13b
00000130: ba02 f3bd 3f65 723d 54b4 153e 4331 893d
00000140: f9af 6dbd ed11 2dbe f7de b2bd 1ce5 dbbd
00000150: b888 293e ccaf bbbd 35b0 923d d0a3 143e
00000160: 137c 893d 9c90 1bbe 9b90 95bc 21f5 4abd
00000170: d6e3 e13d 10ee a7bc 41e1 b7bb 797e 253e
00000180: c374 1b3d 76f8 9c3d bb52 52bd 5cff e33d
00000190: 5234 f33c 3a18 1ebd aecb 1d3d 45b1 08be
000001a0: 90d4 7a3b d576 ac3d 9741 26be 88ea c5bd
000001b0: dd78 d73d a492 033c 1451 23bc a444 b53c
000001c0: b00c adbd e645 1b3e 0470 49bc 2088 72bd
000001d0: 4a8f c93d fb21 1cbe 7441 1ebd 5300 4d3c
000001e0: 5624 78bd 35bf b93d 6697 15be e6c8 67bd
000001f0: bc6e 8dbd f928 1e3e f621 843d 56c3 00be
00000200: b427 8c3d 7066 8fba b853 263e d191 ca3d
00000210: 5644 d5bd e964 243e 06af 02bd 6a72 28bd
00000220: 6aaa 593d fcf7 323e 2d04 453d 5bca 2ebe
00000230: 8a84 61bd 49f2 263e 8216 71bd 2c5c b2bd
00000240: 9eab 0ebe 8682 c9bd 2cfc c7bd dcaf 2f3d
00000250: 46c2 8d3d afb2 2d3e 46bb f13d 86b8 713b
00000260: b800 c43d edae d13d 0846 20be 80ac b93d
00000270: 538e fabd fea8 133e 3856 9ebd 79fe 053d
00000280: 9503 36bb b065 aa3d f4a5 f43c 2ea9 05be
00000290: a3ff 973d 9df4 d43d 2512 b8bd 1378 e8bd
000002a0: 648f fbbd d34a aebd 5cbe afbc 6a4c 363c
000002b0: 85bc 44bb 46a2 37bd 46f2 da3d 39ef 283c
000002c0: 954e d5bd b802 3dbd 2324 d1bd e797 80bd
000002d0: 0e04 29be 109d f13c 1086 0dbe 4ddd 883d
000002e0: 6ee8 f63d 9646 08be ad21 b9bd ec74 10be
000002f0: 2623 483d 8759 083d 26e8 bbbd af80 dc3d
00000300: 5cff 9d3d c23c 2bbe ecfb 45bc f2ce 95bd
00000310: 8aef 09bd 4e75 ce3d 6dc5 c5bc 493c 00be
00000320: 1e7e 023e b2d1 28be 2e39 7ebd 4e9d 8a3d
00000330: 239c 233e 9d97 2c3e 992e 1abd 4401 6a3d
00000340: 904b 1cbe 63fe 18bd e3bd 70bd ce1a 473d
00000350: de76 f4bd 929a 2a3d fdb0 bf3d 869c 103e
00000360: 403c dbbc bfa7 283e f5a9 2dbe 3e82 42bd
00000370: e193 823d 4746 353d 8d11 b23d d38b f7bd
00000380: fbeb db3d a9cb 29be 0dfb f6bd 46d8 98bc
00000390: bca4 2cbe cb0c 34be dbf5 1bbe 8bc5 163e
000003a0: 047c 083d e828 59bd 8e90 a0ba 2489 20be
000003b0: 9bf0 2fbe 064b f8bd ee7f 30be 0f1b fd3d
000003c0: e0b1 85bd 72de 2cbd e252 17be 717e 0b3d
000003d0: aafd b3bc 32b3 ffbd 0a1a dc3d 29c5 133e
000003e0: dbcf 05be f3ec c23d 13a5 b5bc ab35 96bb
000003f0: ec70 a43d 09bc 39bd 7354 163e d231 f13d
0.12697403 0.09884524 -0.015003179 0.16207023 -0.0801888 0.0063419426 -0.043700032 -0.1262932
-0.08406225 0.04471454 -0.017851252 -0.118026376 -0.024975235 0.033818737 -0.1295753 0.10734766
-0.15220736 0.0021645995 -0.1421794 -0.16034031 -0.01934308 0.15837018 0.16489647 0.061531514
0.13563061 -0.098867424 0.103114024 0.10544793 -0.16673267 -0.13776284 0.07575176 0.017386181
-0.11613387 -0.14383325 0.12025504 0.024723366 -0.004591573 -0.16526371 0.16094589 -0.12194676
0.08188287 -0.025682075 0.004209241 0.09283045 -0.044527825 -0.05543903 0.1485865 -0.14068154
0.084057674 -0.049834695 -0.06405662 0.114779584 0.024594743 -0.15972006 0.16308782 -0.08279874
0.15763135 -0.05027987 0.16189486 0.058024943 -0.0137899425 0.08127902 -0.0018431395 -0.09534899
0.10007882 0.1188464 -0.02439271 0.16951253 0.009134252 -0.098634176 -0.10057521 0.114872165
-0.06751452 0.10909261 -0.17526007 0.006390102 -0.118657544 0.059178587 0.14619571 0.06698849
-0.05802915 -0.1690137 -0.087339334 -0.107370585 0.1655606 -0.0916439 0.07162515 0.14515615
0.067131184 -0.15191883 -0.01825743 -0.04955018 0.110297844 -0.02049926 -0.005611569 0.16161527
0.03795315 0.07664578 -0.05134843 0.1113269 0.029688034 -0.038597323 0.038524322 -0.13348873
0.003827367 0.08421103 -0.16235958 -0.09663874 0.105211 0.008030567 -0.009968061 0.022127457
-0.084496856 0.15163383 -0.012294773 -0.05921185 0.09841783 -0.15247338 -0.03863664 0.012512284
-0.060581528 0.09069673 -0.14608535 -0.056588076 -0.069058865 0.15445317 0.0645179 -0.12574515
0.0684351 -0.0010940563 0.16242874 0.098910935 -0.10413425 0.16054119 -0.031905197 -0.04112474
0.053141035 0.17477411 0.048099685 -0.1706938 -0.05505804 0.16303362 -0.058859356 -0.08708987
-0.13932654 -0.098393485 -0.09764895 0.042892322 0.0692182 0.16962694 0.11803298 0.0036883666
0.095704496 0.102384426 -0.15651715 0.09066105 -0.122341774 0.14419934 -0.07731289 0.032713387
-0.002777313 0.083201766 0.029864289 -0.13052818 0.07421806 0.10398219 -0.08987836 -0.11351027
-0.12283209 -0.08510365 -0.021453075 0.011126617 -0.0030019593 -0.04483249 0.10690741 0.010310941
-0.10415379 -0.04614517 -0.10211971 -0.06278973 -0.16505453 0.029493839 -0.13820672 0.06682835
0.12056051 -0.13308176 -0.09039626 -0.14107102 0.048861645 0.033288505 -0.09175138 0.10766732
0.077147216 -0.16722396 -0.012083989 -0.07314862 -0.033675708 0.10080968 -0.024141992 -0.12522997
0.12743422 -0.16486242 -0.06206625 0.06768285 0.1597753 0.16854711 -0.037642095 0.057130113
-0.152632 -0.037351977 -0.05877484 0.048609547 -0.119367346 0.041651316 0.0935993 0.14122209
-0.026762128 0.1647024 -0.16959365 -0.04748749 0.06375862 0.044256475 0.08694754 -0.12087216
0.10738369 -0.16581596 -0.12059603 -0.018657815 -0.16859716 -0.17583005 -0.15230505 0.14723794
0.033321396 -0.053017527 -0.0012250112 -0.15677315 -0.17181627 -0.121236846 -0.17236301 0.12358677
-0.065280676 -0.042204328 -0.14777711 0.03405613 -0.021971542 -0.12485351 0.10747154 0.1443068
-0.13067572 0.09517851 -0.02217344 -0.0045840344 0.08029351 -0.04534534 0.14680652 0.117770806

transformer_encoder.layers.0.linear1.bias f4 [64]
00000000: f9ec 81bd 84b0 be3d f80c 27bd 9a09 b9bd
00000010: 5d75 31be 4825 f63d 3757 37ba e318 a53d
00000020: ffc3 033d 522f 03be e8a6 91bd c248 033e
00000030: 9336 bfbd b91e b2bd 1558 c93d 82d0 93bd
00000040: 2338 043d 7afc bcbd f9aa 423d 6ffb 873c
00000050: 1c2d 0cbe 3c8f 09be 10af 893d 0b6c 6ebd
00000060: f7e9 c63d 81ad 893c 1e56 73bd 1fb2 dbbc
00000070: c25e 8dbd 010b b43d 8bb3 0c3e 486b b4bb
00000080: 5d7b e7bd 16e5 013e 2b88 143e 018c f23d
00000090: b7d3 ef39 3b6b 273d d6a2 183c ae2c 80bd
000000a0: c88a 2fbe 83c0 80bc 2976 8d3d ca2a d13d
000000b0: b5f1 2b3d 3b8c ac3d 8161 d73d 531f eabc
000000c0: ebd6 d63d c357 2a3b 42a3 7dbd 4927 94bd
000000d0: b929 d2bd 3aa0 10be 751a 0e3d 9c28 2b3e
000000e0: d6c0 b23c 090b 823c b47b 83bd 715f 9bbd
000000f0: 9345 6dbd 34a0 7e3d b363 233d 5cb6 85bd
-0.06344027 0.093110114 -0.040783852 -0.090350345 -0.17329927 0.120188296 -0.0006993892 0.080613874
0.03216934 -0.1281102 -0.07111913 0.12820724 -0.09336581 -0.08697266 0.098312534 -0.07217504
0.0322801 -0.092278436 0.047526333 0.016599385 -0.13689083 -0.13433546 0.06722844 -0.058208507
0.09712594 0.016806366 -0.0594083 -0.026818333 -0.06902839 0.08791161 0.13740365 -0.005505953
-0.113028266 0.12685046 0.14505069 0.1184311 0.00045743372 0.040873747 0.009316167 -0.06258522
-0.17142785 -0.015716797 0.06907303 0.102132395 0.041978557 0.08425184 0.10516644 -0.02857939
0.10490211 0.0025992251 -0.061923273 -0.072340555 -0.10261864 -0.14123622 0.0346932 0.1671471
0.021820467 0.015874403 -0.06420079 -0.075865634 -0.05792768 0.0621645 0.039890002 -0.06528923

transformer_encoder.layers.0.linear2.weight f4 [32, 64]
00000000: f8d5 003d ec8b 7bbc 1678 0dbb 7092 c53d
00000010: 13ff 3cbd 43b3 fb3d 79a6 7cbd e4af fa3d
00000020: a4d1 5f3d e797 693d a813 afbc 541f dfbc
00000030: 6427 adbd 8f21 ecbd 55cd b53d 3afd 013e
00000040: 9e89 2f3d a5af 2bbd 297a 133d 0fd1 d43a
00000050: cb00 d6bd 7ead bfbd bf29 483d f367 f7bc
00000060: ac06 bebc 2a03 8dbd 4382 803d 79fb 6cbd
00000070: 18da 0dbd cd55 903d fa12 033e d038 e43d
00000080: 1ab4 663d 9f54 333c aa9f c73d 5df0 f03d
00000090: c914 803d 920c 293d ff98 163d b99d 983c
000000a0: 1ea8 b63d 0283 2a3d 3b1b cabd b667 8ebd
000000b0: 2404 d6bd 879d 00bd 15f6 583c 9e9f 40bd
000000c0: fdfd dcbd 2084 a3bd 7799 663d 9b7f bdba
000000d0: 808b 6ebc 8e02 e73c b54a 92bc 7571 80bd
000000e0: 32e2 4dbd 83bd 2ebd aa4c dfbd 68a3 dcbd
000000f0: e8ec 37bd 38a2 5a3d 1104 013e 1619 5b3b
00000100: fc20 a13d b718 133d b2e3 d7bd a078 8abd
00000110: fdb5 26bd a053 e0bd 5eb8 353c 8876 b73c
00000120: 96e2 d4bd fb1f 06bd 9d37 eebd 12eb f33d
00000130: 8383 8b3d e742 5bbd f010 d53d 0d5d aebd
00000140: 3aab ca3d bab8 5bbd a48e 033d 1881 a53d
00000150: beca 503d 6783 cd3c a444 acbc 02bd b9bb
00000160: bb43 ce3d 6bb1 40bd 6de1 3dbd 1f4e 103c
00000170: 9b22 8ebd 9375 60bd 5765 983b da87 c03d
00000180: 8af5 093d eb98 a9bd 9cc0 8e3d bfd9 55bd
00000190: b363 dd3c e2eb b33a 08a6 ac3d 937a 0dbd
000001a0: 944a 6dbd 8e4c 04bd b7af a4bb 5287 8abd
000001b0: c62c a03d f1bd 97bd 2f82 663c 087e d1bd
000001c0: 2dfd b8bc 90f8 0dbd fdbe 59bd 3224 763d
000001d0: 9d55 f1bd c16a 013c 95ac 97bc ec85 93bd
000001e0: 9243 bd3d 957e 963d 6344 073d d27b 80bb
000001f0: 40c3 7a3d 8e61 79bd 3ffb ddbd 93fb e93d
00000200: 7b50 2ebd 115b f23c 4b5c c53b fe0f e13d
00000210: 4c00 043e aedb a2bd 6f9b 4c3b 1d2b c8bd
00000220: cbd6 ae3d 694a ff3d 73af 30bd c1be db3c
00000230: 1091 bebc 64a1 d2bc 7801 ca3d f09f e6bd
00000240: dc9a 52bc 9074 383b d7df d8bd 3ee8 653d
00000250: 3c9d b33d ee96 c2bd 04c6 543d 2691 3abb
00000260: 561d f93d 752c e9bd 9063 e23d 0ec8 2ebd
00000270: adf1 df3d 2d64 6ebd fc1b d13c 20e0 ee3c
00000280: 00b1 a63d c5c1 813d b7e2 983d dac1 adbc
00000290: 5302 c2bd a5d5 bc3b 6420 f33d 7b96 e63d
000002a0: 7754 8fbd 7e46 b73d 610a 7a3d 8e58 91bc
000002b0: 8716 963d 7a79 a6ba e2fa a03c bf5c 9fbd
000002c0: eff9 38bc 922b 013e cdf0 a13d 1453 c6bd
000002d0: 36fc 1ebb fbab ac3d d835 47bd d275 3ebc
000002e0: 3f32 873d 1bb4 e03d a968 f23d 5abe b0bd
000002f0: eaea e6bd 6b0f c03d 9f58 bcbb d342 ef3d
00000300: 71e3 b43d 477e 4dbd ce52 133d 66ad 253d
00000310: 371d 38bd f0e9 e33d 9832 183c ade3 2abd
00000320: 2e2b ebbd e527 cb3d 22f7 00be 60e2 c13d
00000330: e262 38bd eed4 c7bc ab46 813c 64b8 fb3d
00000340: e0f7 a9bd 6763 b7bd 71fc 953d f284 7ebd
00000350: fa55 3fbd 3df8 923d 13f1 55bd c105 973d
00000360: cb49 4abd 65df c43d ccf9 fc3d bb14 823c
00000370: a8aa 28bd f8ad 8a3d 3867 0b3d e83c 0e3a
00000380: 1581 e23d 3d44 ecbb ecc0 2f3d cd71 1cbd
00000390: 66bb bebc 2c12 d7bb c367 ee3b 02f0 5c3d
000003a0: a2a7 be3d 5719 9c3d 6d5e 5dbd 0488 e43d
000003b0: 1d97 ad3d 289a 353d 60a8 4f3c 4293 92bd
000003c0: b82a 9bbd dcec 033b 82d0 c1bd b7eb 2e3d
000003d0: cf60 eabd ec36 e8bd aed4 6cbd 6af9 933d
000003e0: 8f1e c33d a796 d9bd c68b a3bd 3423 d93c
000003f0: 1f7e b9bc 0aab d4bd 9f7a 0d3d d9f2 d6bd
0.031454057 -0.015353184 -0.002158647 0.09647071 -0.046141695 0.12290051 -0.0616822 0.1224058
0.05464329 0.05702963 -0.021371678 -0.027236618 -0.08454779 -0.11529838 0.088770546 0.12694255
0.04285585 -0.041915555 0.036005173 0.0016236621 -0.1044937 -0.09359263 0.048867937 -0.030200934
-0.02319654 -0.06885369 0.062748455 -0.05785701 -0.03463182 0.07047615 0.12800208 0.111436486
0.056324102 0.010945468 0.097472504 0.11764596 0.062539645 0.041271754 0.036767002 0.018629896
0.089187846 0.041628845 -0.09868475 -0.06953375 -0.104500085 -0.03140023 0.013242264 -0.047027223
-0.10790632 -0.07984185 0.0562987 -0.0014457585 -0.014559627 0.02819946 -0.017857889 -0.0627164
-0.050264545 -0.0426612 -0.109032944 -0.10773355 -0.044903666 0.05337736 0.12599207 0.00334317
0.078676194 0.03591224 -0.10541476 -0.06761289 -0.0407009 -0.1095345 0.01109132 0.022395387
-0.1039478 -0.032745343 -0.11631701 0.119100705 0.06812193 -0.0535306 0.10403621 -0.08513842
0.0989594 -0.053642966 0.032118455 0.08081263 0.0509746 0.025087072 -0.021028824 -0.0056682834
0.10071512 -0.0470442 -0.04635756 0.008807688 -0.06940194 -0.054799628 0.0046507525 0.09400912
0.03368143 -0.0828112 0.06970331 -0.052209612 0.02702508 0.0013726915 0.084301054 -0.034540724
-0.05793245 -0.03229957 -0.0050258297 -0.067640916 0.0782104 -0.07409275 0.014069124 -0.10229117
-0.022581661 -0.034660876 -0.053160656 0.060093112 -0.117839076 0.007898987 -0.01851491 -0.07203278
0.09241404 0.07348362 0.033024203 -0.0039210105 0.06122136 -0.06088405 -0.10838937 0.11424937
-0.04255722 0.02958444 0.006022965 0.109893784 0.12890738 -0.07952057 0.0031220575 -0.09773848
0.08537062 0.124653645 -0.04313607 0.026824357 -0.02326253 -0.025711723 0.098635614 -0.112609744
-0.012854304 0.0028145649 -0.10589569 0.056129687 0.087702245 -0.09501444 0.051946655 -0.0028467863
0.121637985 -0.11385433 0.11054146 -0.042671256 0.10934768 -0.058201004 0.02552604 0.029159606
0.08139229 0.06335787 0.074651174 -0.0212106 -0.094730996 0.005762773 0.118714124 0.112591706
-0.06998532 0.08948992 0.061045054 -0.017742421 0.073285155 -0.0012700998 0.01965088 -0.07781362
-0.011290058 0.12614277 0.07907257 -0.09683815 -0.0024259216 0.0843124 -0.048635334 -0.01162477
0.066013806 0.109718524 0.118363686 -0.08630057 -0.11275275 0.09377941 -0.005747869 0.116826676
0.088324435 -0.050169256 0.03596764 0.04044857 -0.044949736 0.111286044 0.009289406 -0.041721035
-0.11482845 0.09919719 -0.12594274 0.09467006 -0.045016177 -0.024393525 0.015780767 0.12291029
-0.082992315 -0.08954506 0.0732354 -0.062138505 -0.046712853 0.07176254 -0.05223186 0.07374144
-0.04938678 0.096129216 0.123523325 0.015879026 -0.041178375 0.06771463 0.034033984 0.0005425946
0.11059777 -0.007210283 0.042908594 -0.038194466 -0.023282718 -0.0065634456 0.007275553 0.053939827
0.09309317 0.07622021 -0.05404513 0.111587554 0.08476088 0.044336468 0.012674421 -0.071569934
-0.07576507 0.0020130193 -0.09463598 0.042705264 -0.11444246 -0.113386005 -0.057820015 0.07225306
0.09527313 -0.10624438 -0.07985644 0.026506044 -0.022643147 -0.103841856 0.03454077 -0.10495538

transformer_encoder.layers.0.linear2.bias f4 [32]
00000000: 6a90 98bd a1ff 583d 78a5 023e 1399 d83d
00000010: 5a08 4e3d 42f3 ec3d 0439 7dbd c431 17ba
00000020: 1595 cebd fa16 9fbd 1002 a1bd 4031 f7bd
00000030: 4728 0c3d 07ec 123d eca6 393d 6e3c be3d
00000040: 93cc ddbd 4e30 07bd 45af c03d 6c8e f0bd
00000050: de10 b93d 3568 273d 4a81 d3bd ba14 d93c
00000060: 284f 833b afd1 8c3c 0b12 00bd cf21 703d
00000070: b994 d33d dbe2 ab3d 75d9 dbbb 3e05 ecbd
-0.0744942 0.05297816 0.12758434 0.105760716 0.050300933 0.11569835 -0.061821952 -0.00057676085
-0.10087029 -0.07768054 -0.078617215 -0.120699406 0.0342181 0.035869624 0.045325205 0.0928887
-0.10830035 -0.03300505 0.0940843 -0.11745915 0.0903642 0.040870864 -0.10327394 0.026499141
0.004007239 0.017189829 -0.031267207 0.058625992 0.10331101 0.083928786 -0.0067092725 -0.11524437

transformer_encoder.layers.0.norm1.weight f4 [32]
00000000: 9230 813f 2384 813f 5c5c 7f3f 8c3c 803f
00000010: 43d0 803f c2d1 803f 0d92 813f 6dc0 7f3f
00000020: d1e3 803f c965 803f 8af6 803f 1772 7f3f
00000030: f3cb 7f3f 9996 7f3f a883 7f3f 2de2 7d3f
00000040: b1d1 7d3f bdba 7f3f cc8b 803f 5c86 803f
00000050: 843e 7f3f a060 803f b74b 7f3f 87f4 7f3f
00000060: e888 803f 326e 7e3f 568c 7e3f d044 803f
00000070: ffc6 7d3f 6798 7d3f 739d 803f 6bab 7f3f
1.0092947 1.011845 0.99750304 1.0018477 1.0063556 1.0064013 1.0122696 0.99902993
1.0069524 1.0031062 1.0075238 0.9978346 0.99920577 0.9983917 0.99810266 0.9917324
0.9914809 0.99894315 1.0042663 1.0041003 0.99704766 1.0029488 0.99724907 0.99982494
1.004178 0.99386895 0.99432886 1.0021 0.9913177 0.9906067 1.004805 0.9987094

transformer_encoder.layers.0.norm1.bias f4 [32]
00000000: 763a f23b ca65 bebb f704 873b e9e0 3839
00000010: 377b 3f3a 3ac7 9139 b4a2 8abb 6d56 6f3b
00000020: 10d6 d8b7 2179 3cba 55d4 e73b 559f ecbb
00000030: 0992 f4ba 77ef 843b 444c b8bb 80a0 273c
00000040: 5004 10bc 5d7a f33a 7b66 87bb ff78 abbb
00000050: 994f 5a3b 4677 503b c307 15bb f6b8 b2b8
00000060: 229a 403b 0924 c8bb a820 913b 1a02 eb3a
00000070: 3148 0f3c e83c 53bb 4f9d 753b c436 4aba
0.007392223 -0.005810474 0.004120465 0.00017631393 0.0007304432 0.0002780499 -0.0042308215 0.003652002
-2.5848887e-05 -0.00071896805 0.0070748725 -0.0072211423 -0.0018659245 0.0040568667 -0.005624326 0.010231137
-0.008790091 0.0018575896 -0.0041320897 -0.0052329297 0.0033311604 0.0031809374 -0.0022740222 -8.522153e-05
0.0029388745 -0.0061078114 0.0044289418 0.0017929703 0.008745239 -0.0032232348 0.0037477796 -0.0007713849

transformer_encoder.layers.0.norm2.weight f4 [32]
00000000: c210 813f 660e 813f 5806 803f de0d 803f
00000010: e380 813f 1576 803f 3b85 813f c11a 803f
00000020: f1de 803f 1e80 803f 58b2 7f3f 59a7 7f3f
00000030: 5ae6 7f3f 78d9 7f3f f698 7f3f 8355 7e3f
00000040: 88c0 7d3f 0499 7f3f 229f 803f 42d1 803f
00000050: ffa5 7f3f c835 803f 023b 7e3f bdcc 7f3f
00000060: d6f3 7f3f b4fc 7d3f f5ba 7e3f 234b 803f
00000070: 38c2 7e3f 2640 803f 648c 803f 0ba5 7e3f
1.0083239 1.0082519 1.0001936 1.0004232 1.0117458 1.0036036 1.0118784 1.0008165
1.0068036 1.0039098 0.99881506 0.9986473 0.99960864 0.99941206 0.99842775 0.9934923
0.99121904 0.9984286 1.0048563 1.006386 0.99862665 1.0016413 0.9930879 0.9992178
0.9998144 0.9921372 0.99504024 1.002293 0.99515104 1.0019577 1.0042844 0.99470586

transformer_encoder.layers.0.norm2.bias f4 [32]
00000000: 9617 d33b 9379 dabb 17f9 703b 1a56 84ba
00000010: 592a e439 ae1e 4cbb 5536 a5bb 0a44 1e3b
00000020: caeb 203a d356 e7ba 6f6b bd3b 9d1c 00bc
00000030: a1c0 b3ba 54c4 343b f6d0 b0bb b958 1d3c
00000040: a1ef 0fbc bfd1 2c3b 96d5 9ebb 27ef e9bb
00000050: 22e8 e83a 263f f53a 2dcd 02bb a224 24ba
00000060: 6021 58ba 57bb fcbb d8ec 883b befa 823a
00000070: 13d3 ab3b caf0 64bb 79bc 483b 1ede f7b9
0.0064420206 -0.006667325 0.0036769563 -0.0010096461 0.000435191 -0.0031146216 -0.0050418773 0.002414944
0.0006138651 -0.0017649777 0.0057806293 -0.007819322 -0.0013714024 0.002758284 -0.005396004 0.009603673
-0.008785159 0.0026370136 -0.004847239 -0.007139105 0.0017769376 0.0018710836 -0.001995872 -0.0006261562
-0.00082447194 -0.0077127623 0.0041786246 0.000999294 0.005243668 -0.003493356 0.0030629917 -0.00047277

transformer_encoder.layers.1.self_attn.in_proj_weight f4 [96, 32]
00000000: 2346 d6bd fc0e 33be 4a1d 353b ddff f8bd
00000010: a296 2f3e 7f8b 50be 4cc9 aa3d 38f0 573e
00000020: 9cb0 e73d 907c 8c3d 338e 58be 7a45 5a3e
00000030: d65e 05bd 84fb 53be 826b 5f3e 0339 bcbd
00000040: ac3a 49bc 09ed 453e 2d08 1ebe 2bbd 21be
00000050: 359d fd3c 8c3c c8bc b755 4a3d 1e64 35be
00000060: 5ae3 343c d034 bcbd aaa5 e2bd 9e7b 45be
00000070: fb20 e33d a5a3 183d 7362 36be 7ac0 313e
00000080: 4707 863d 768f 403d ea0b 02be b876 0a3d
00000090: f7d7 503e d851 183e c3aa 24be 68e2 483e
000000a0: 2688 8a3c c58f d43d ac8a 273e cce6 403e
000000b0: b381 2abe f43a 403e da5b 14be 632b 563c
000000c0: 3093 16be 5ea6 46bd 0c40 30bc 9ff4 cfbc
000000d0: 797d 10bd 2a75 923c 936e 603e e7ca 013e
000000e0: d579 f93d 3c0f b53d fe4c 2a3e 9737 13bc
000000f0: 75af 783c a162 373d acac 41be a03b 35be
00000100: 1208 ef3c c943 aebd 0508 89bb bd24 41bd
00000110: 6f1c 043d 0d18 133e 15cc 9fbd e481 2f3e
00000120: 6fd6 313e 1690 2cbe 747b 2dbe fddf 32be
00000130: 4858 eebd ef60 b0bd 8a02 76bc 68da 5bbd
00000140: f270 e0bd eaa1 92bd b5f3 a4bd cf32 563e
00000150: 633d a8bd 1679 1cbe a989 b03d ddbd 26bc
00000160: 7e5d 2c3e 6259 0c3e 2cc7 493e 2247 20be
00000170: 91ef 0c3e b012 363e 1d7b d4bd d7e5 4f3e
00000180: 425f 273e f024 1d3c 8e4b d03d 2037 98bd
00000190: b818 44be 7ecf 633d fc9a 983d bd09 13be
000001a0: 1e00 d93d 2512 3fbe 2b22 3c3e c73a 5a3e
000001b0: 659d 7b3d 81b2 0cbe f01f db3d 7a19 0e3d
000001c0: 31a4 7c3d 5785 8f3d c136 273e bfe6 bdbd
000001d0: a750 4ebd 02e2 763d f567 ed3c a015 343e
000001e0: 0c90 e7bd c67b c2bb cf36 1c3d 2f3d 65bd
000001f0: d8eb 143e 1b4f c13c 57e2 4cbe a452 e6bc
00000200: 2126 c5bd 5d17 bc3c 6435 eabc 62af 5bbe
00000210: bd60 22bd 4a47 aabc 620b 84bd d8c3 4a3e
00000220: e63f 3bbd 15fb 0c3e 5157 603d 7054 3abe
00000230: b068 553d 402e 363e d685 0ebe 456a 0ebe
00000240: 0753 583e 6d98 313e 35ae fabd c844 043e
00000250: 35ce eebc 3421 59be 1c30 553c e4c8 913d
00000260: 96ae 83bd 638a 9c3d d554 3fbe fcb8 1a3e
00000270: c6f2 3b3e ea7d f23d fb57 1b3d 1d20 893d
00000280: cf3a 22be d647 46bd c75d a3bc eacc f7bd
00000290: 91d7 25be f67b 143e e394 243e da7f 49be
000002a0: 051b 8b3d b4c1 b53d 9638 503e 51ee 023e
000002b0: 36ca 4b3e fcff 90bd cc70 1b3e bf85 313e
000002c0: 398d 4cbe 7d5a 31be 62ae 353d 0df3 f53d
000002d0: e2e3 dbbd 0778 be3c ec30 083c 1c86 5e3d
000002e0: f4a3 efbd 67d9 fa3d 036e 133e d95f 1abe
000002f0: 63ca b43a 8ecb 433b e9d4 8a3d 46ad 493e
00000300: 3da7 853d 6ff4 2abd e98a 453e c378 a3bd
00000310: f3fe 87bd cef2 853c 0e0e 21be 4bc3 aa3c
00000320: 6c1a 16be 3951 a63c 1a36 833c f8ba 0a3d
00000330: e09e 37be 6b1d 54be c7f5 cc3d 9d3a 3a3e
00000340: 6442 40be 381f a03d 6baf 24be 9b96 5a3c
00000350: 4973 4c3e 5aa8 293e a8e7 18be 94b8 0a3e
00000360: bb03 ea3d 444a fe3a edf0 533e 558b abbd
00000370: 44d4 58bd f3b1 e0bd b5f8 003d e1c9 5c3d
00000380: ba89 9c3c 00ba f4bd e64b cbbd 1aa1 993d
00000390: f1c3 45be e381 02bd 7072 78bb a1b6 b7bd
000003a0: 8077 a73d 89f5 563c f4ec 183e 580a 8dbc
000003b0: 5698 0abe 0460 193e c68b 0c3d 1545 83bd
000003c0: eef1 0fbe 22a5 453d 72b4 55be c788 623d
000003d0: 1f52 d73d c64c 40be 5734 12be 4216 1dbe
000003e0: a92a 3d3e eec4 3e3e 3566 553c 4baa 513e
000003f0: ef8d 98bd b44e 5abe f59e a03d ca4a a93d
-0.10462596 -0.17486185 0.0027635866 -0.12158177 0.17147306 -0.20365714 0.083391756 0.2108773
0.113129824 0.06859696 -0.21147995 0.21315566 -0.032561146 -0.20701414 0.21818355 -0.091905616
-0.012282055 0.19328703 -0.15432806 -0.15794818 0.030958751 -0.024442933 0.04939815 -0.17713973
0.011040533 -0.09189761 -0.11066754 -0.19285437 0.11090275 0.03726544 -0.17810993 0.1735858
0.06544357 0.047011815 -0.12699857 0.033804625 0.20394884 0.14874971 -0.16080765 0.19617617
0.016910624 0.10378984 0.16361493 0.18838042 -0.16651039 0.18772489 -0.14488164 0.013071868
-0.14704585 -0.048498504 -0.010757457 -0.0253852 -0.03527591 0.017878134 0.2191718 0.12675057
0.12181441 0.08840796 0.16630933 -0.008985422 0.015178551 0.044771794 -0.18913525 -0.17698526
0.029178653 -0.08509023 -0.004181864 -0.047154177 0.03225368 0.14364643 -0.078025974 0.17139393
0.17366956 -0.1685184 -0.16941625 -0.17468257 -0.11637932 -0.086122386 -0.015015254 -0.053675085
-0.109590426 -0.07159789 -0.08054296 0.2091782 -0.082148336 -0.15280566 0.086200066 -0.010177103
0.1683254 0.13705972 0.19704884 -0.15652135 0.13763262 0.17780566 -0.103750445 0.2030252
0.16344932 0.009591326 0.10170661 -0.07432389 -0.19150054 0.0556178 0.07451436 -0.14359184
0.105957255 -0.18659265 0.18372409 0.21311484 0.0614294 -0.13739969 0.10699451 0.034692265
0.061680023 0.070078544 0.1632948 -0.09272527 -0.050369885 0.06027413 0.028980235 0.17586374
-0.11306772 -0.005935165 0.038138207 -0.055966552 0.14543092 0.02359729 -0.20008217 -0.028115578
-0.09626413 0.02296036 -0.028589912 -0.21453622 -0.039643038 -0.020785946 -0.064474836 0.19801271
-0.045715235 0.13767655 0.05477077 -0.18196273 0.05210179 0.1779108 -0.13918242 -0.13907726
0.21125422 0.17343302 -0.122402586 0.12916863 -0.029151062 -0.21204072 0.013011958 0.07118395
-0.06429784 0.07643583 -0.18684705 0.15109628 0.1835433 0.118404225 0.0379257 0.06695578
-0.15842746 -0.04840835 -0.019942177 -0.12099631 -0.16195513 0.14500412 0.16072421 -0.19677678
0.06792263 0.088748366 0.20334086 0.12786223 0.19901356 -0.07080075 0.15179747 0.17336176
-0.19975747 -0.17319675 0.044355758 0.12009249 -0.107368246 0.023250593 0.008312445 0.054327115
-0.117011935 0.122484975 0.14397435 -0.15075625 0.0013793226 0.0029875967 0.06778891 0.19695005
0.06526039 -0.041737016 0.19291271 -0.07982018 -0.066404246 0.01635113 -0.15728018 0.020845076
-0.14658517 0.020302402 0.016017009 0.033869714 -0.179317 -0.20714347 0.10007816 0.18186422
-0.18775326 0.078184545 -0.16082542 0.013341571 0.19965853 0.16568127 -0.1493212 0.13546973
0.11426493 0.0019400795 0.20697375 -0.08376185 -0.052936807 -0.10971441 0.031487186 0.053903464
0.019108642 -0.11949539 -0.09926586 0.07501431 -0.19313027 -0.03186215 -0.0037910007 -0.089703806
0.0817709 0.013120064 0.1493414 -0.017216846 -0.13534674 0.14978033 0.034312986 -0.06409661
-0.14057133 0.048253186 -0.20869616 0.055306222 0.1051371 -0.18779287 -0.14277779 -0.15340522
0.18473305 0.1862981 0.013024856 0.20475118 -0.07448947 -0.21319085 0.07842819 0.08266218

transformer_encoder.layers.1.self_attn.in_proj_bias f4 [96]
00000000: 9fa7 963b 1ee1 a33a cca2 0f3b e3d1 c73a
00000010: 3bf8 973a ac46 9bb9 6727 f93a 20cf 143b
00000020: 6917 43bb 6e59 1bbc e321 933b 2499 8e3b
00000030: ea02 523a 13f8 b63a 6098 b43b bfab 93bb
00000040: 598a 27bc 3557 00bb edbd b1bb 3834 1abc
00000050: 9224 ca3b 35cb 133c e627 1b3c 50cd 0c3b
00000060: ef26 ccba c540 f3bb 23f4 453c 041c 03bb
00000070: e577 d9ba 2121 223c a00a c9b9 e97a ee3b
00000080: 6c0f e0b6 a33a 5c37 dc32 2db5 2ea2 7037
00000090: f8f5 b337 0636 6cb6 6a6a 4137 e66b 9fb6
000000a0: 0030 ef36 35d2 87b5 8a8e 52b7 02a0 c736
000000b0: d5b9 5e37 8221 7537 2c66 e3b5 9089 ddb6
000000c0: ceb3 0bb7 9326 a936 2377 03b7 1e11 2837
000000d0: cfed bd36 bafa bf37 42f5 6336 a78e 6636
000000e0: 5890 1cb8 70c2 a537 aaed 2cb6 c0c0 30b7
000000f0: 31a6 1b36 a231 c4b4 aa8c e936 365f 0436
00000100: b266 c23a 7c8d d3ba 47ca 023b 039f 193b
00000110: 7060 cb3a 69b0 ec3b 96ca 9f3b fde5 afba
00000120: 4d1a 14bb 0401 c3ba efe2 923b d67d 07bb
00000130: d3ed 35bb b274 f53a 19a1 8d3a 5500 633b
00000140: 0e0a 9a3a 7fbd 0b3c eac4 de3a f141 93bb
00000150: cc9e ceba 31b9 01bc 1543 20bc 14da 8cbb
00000160: 3387 dbbb 2115 dbbb eea7 1bbb 4d4f 39bc
00000170: 790c 693b ce32 ce3b 063e 033c f8d4 e3ba
0.0045976187 0.0012503003 0.0021917103 0.0015245046 0.0011594364 -0.00029616558 0.0019008935 0.0022706464
-0.0029768592 -0.009481771 0.0044901236 0.004351752 0.00080112985 0.001395943 0.0055113286 -0.0045065577
-0.010225856 -0.001958323 -0.0054242522 -0.009411864 0.0061689103 0.009020616 0.009469962 0.002148468
-0.0015575568 -0.0074234926 0.0120821325 -0.0020005712 -0.0016591517 0.009895594 -0.00038345624 0.0072778356
-6.6775156e-06 1.3126674e-05 -6.452153e-07 1.4342875e-05 2.1453001e-05 -3.5198186e-06 1.1528473e-05 -4.7511303e-06
7.128343e-06 -1.0119462e-06 -1.2550163e-05 5.9492895e-06 1.32754985e-05 1.461094e-05 -1.6942554e-06 -6.6023276e-06
-8.32691e-06 5.041083e-06 -7.835947e-06 1.0017566e-05 5.6603235e-06 2.2885728e-05 3.3968395e-06 3.4355705e-06
-3.732773e-05 1.9760075e-05 -2.5768336e-06 -1.0535296e-05 2.3193536e-06 -3.6543958e-07 6.9603166e-06 1.9724953e-06
0.0014831631 -0.0016140188 0.0019956992 0.0023440726 0.0015516412 0.007223178 0.004876445 -0.0013419982
-0.0022598684 -0.0014877622 0.004482619 -0.002067437 -0.0027760162 0.0018726795 0.0010805457 0.003463765
0.0011752264 0.008529066 0.0016995941 -0.004493945 -0.0015763878 -0.007917688 -0.009781619 -0.004298458
-0.0066994666 -0.0066858684 -0.0023751217 -0.011310411 0.0035560413 0.0062926775 0.008010393 -0.0017382195
